ImageSegmentation/saved_model_pth/DilationCNN_nuclei_16_epoch50.pth (torch_old, 39456 bytes, 13 tensors)

net.0.weight f4 [8, 1, 3, 3]
00000000: 3c42 1e3d 1d3c 9b3d 343a 23be c631 a4be
00000010: 1eae 2bbe ff7a 473d 28e2 a3be ad69 873d
00000020: c34b 893e 3b80 acbe 8a83 35be 7f0c b4be
00000030: fd47 f13d a986 21be 957a 0ebe 3b25 b0bd
00000040: c452 37be 0d1f dbbd 203e 8d3e 9b73 2dbe
00000050: e82a 963e 82db 853e 745c 333e b7c0 8e3c
00000060: 4af8 ac3e 988a 0cbe ecb6 993e 9717 bdbc
00000070: acbd 74be 0a71 953e e26b aabe b924 94be
00000080: 0b7f 6f3e bc4a c1be b411 a9be 29ad c73d
00000090: c522 70bd af89 443e 4566 35be 099e c33d
000000a0: f484 69be 89f4 0bbc f99d 163e f13f b4be
000000b0: 280e 9bbb e5a7 72bd 08fb 59be ba29 97be
000000c0: 10aa 5dbe f013 4a3e ff03 2cbe 2ac6 3fbc
000000d0: 0567 153e 6c62 99be b3f6 aabe 6a8e 36be
000000e0: 9a4a 2d3d cb61 8e3e 7871 d6bb 7f4c 86bd
000000f0: 8b06 973e c4aa 313e 9670 d73e e2f9 343d
00000100: f881 a03e ffa1 973e 6bb6 aabd dbd0 2e3e
00000110: e81d b53d 8517 643b 716f 513e fff2 70be
0.038637385 0.07579825 -0.15940171 -0.32069224 -0.16765639 0.048701283 -0.3200848 0.06611953
0.26815614 -0.33691582 -0.1772596 -0.35165784 0.11781309 -0.15774025 -0.13913949 -0.08600851
-0.17902666 -0.10699282 0.2758646 -0.16938631 0.2932961 0.26144034 0.17515737 0.017425878
0.3378318 -0.13724744 0.3002237 -0.023082538 -0.23900479 0.29187804 -0.33285433 -0.28934267
0.23388307 -0.3775233 -0.3302132 0.097498246 -0.05862691 0.19193147 -0.17714794 0.09551627
-0.22804624 -0.008542188 0.147087 -0.35205033 -0.004731912 -0.059242148 -0.21287167 -0.29524022
-0.21646905 0.19734168 -0.167984 -0.011704961 0.1459008 -0.29957902 -0.33391342 -0.17827764
0.042307474 0.27808985 -0.0065442882 -0.06557559 0.2949718 0.17350298 0.42078084 0.04418362
0.31349158 0.2961578 -0.08335575 0.1707186 0.08843595 0.0034804058 0.20452668 -0.23530196

net.0.bias f4 [8]
00000000: bf27 3c3d 6ced 76be add2 4fbe d204 783d
00000010: eb86 8d3e 2c78 4c3d f5e1 febd 2a71 8dbe
0.045936342 -0.24114007 -0.2029521 0.060551472 0.27641997 0.049919292 -0.12445442 -0.276254

net.1.weight f4 [8, 8, 3, 3]
00000000: b517 3c3e 8a64 b5bd 4ab0 a4bd e8c4 a43d
00000010: 5c33 70bd b173 7abe 9a91 10be 4db6 7a3d
00000020: 2824 c13d d482 debd a835 c7bd 7680 41bb
00000030: a965 a2bd 370b c0bc 57c9 e3bd 74ad 7e3d
00000040: 77e9 74bb 7664 96bd d50b d43d 154c 003e
00000050: b448 153e 24b8 c53d 6b7d f93d 28d5 c03d
00000060: 4039 6c3d 2926 9ebd f914 a3bc 5480 743d
00000070: b7d1 9ebd 7b05 8ebd 41a8 a13d 4a33 ba3b
00000080: 9bb3 eabd 7ca5 1d3e b79e 42bd 463f e1bc
00000090: 56be ccbd 8496 cebd 3481 5c3d 4774 693d
000000a0: 8a6f 41bc bcd4 e93c 9ca2 f0bd 62ec 0ebd
000000b0: fd9a 9ebd 0bda ca3c 0bd9 773c ba65 5cbd
000000c0: 56a2 19bd 1210 483d 5258 2dbd 9de4 99bd
000000d0: 9fac cdbd 30be debd bebb 903c 18cb 163e
000000e0: d0dc f53d 195b 963c acbe 0abd 26f3 123d
000000f0: 7153 2f3d 2690 b9bd 00d5 583d d094 8bbd
00000100: 4ab2 72bd 6dd0 14bd 4733 883d c0de e13d
00000110: 174d 27bd 2ecb eb3d 5e4b 68bd 9665 09bd
00000120: d16f 1bbe 1971 c4bd 8c19 e1bb 30df 05be
00000130: 896d 453d 21a0 a23d a9c9 86bd 6782 43bd
00000140: a76d f63c 6f00 adbd 659d c5bd 7453 3dbd
00000150: e7ad 04bc afd7 5bbd a385 8bbc 9e12 c33c
00000160: dc6b 9b3d aa64 f53d b755 b93d 9707 e0bd
00000170: 6be9 e6bc 03c0 d03d 751a 0abe d83b 32be
00000180: 373b a33d 186f eabd 40d6 01be 37e1 ad3c
00000190: 7a2c df3c 082e 373c ccb0 b63d ff69 5a3e
000001a0: c2ef a23d bbd7 0cbe 045d 3d3e 6379 1abd
000001b0: 3bb5 0ebd 460c ef3d aeca 083d 172b a33d
000001c0: 443e e33c 132d 44bc d22d d1bd 6123 06be
000001d0: 4fb3 13bc fadf d43b cc0d d6bc b03b 393e
000001e0: 7996 91bc cf23 e43d 7e81 a2bc 7b02 063e
000001f0: 3395 e73c c7d4 2e3e a1c9 06be 30a2 30be
00000200: 1751 50be 0079 b13d db66 bfbd 60a2 c0bd
00000210: b8e2 f4bd f77e 243d dafa ec3c d853 663d
00000220: beeb 2bbd bbd2 883d 6887 e1bc c699 283d
00000230: e48e 88bd a7d1 943c 526c ad3d 1c23 4bbc
00000240: 929a 2a3f a0fc 353e 947f c6be bb0c 733d
00000250: 47ba 9fbe 09b1 f7be 8715 d9be e0be 863e
00000260: 5c4f ae3e 66ec 42bd 23af 4bbd d31c 3cbc
00000270: 20f8 4dbd ec88 6fbd 39a8 5b3c 552a 9c3c
00000280: bcef c03d 31ef b73d 2b21 00bd c881 06be
00000290: 9c06 873d 758e 8d3d 79b1 37bc bc03 f63d
000002a0: 7108 f93d 6761 8fbd e249 043e 0612 f03d
000002b0: 4d5d c1be 835a 99be 63b2 cb3e 1d93 fabd
000002c0: e550 3cbe 4cc1 0f3e a63a 873d c0ab 2e3e
000002d0: f134 f2bd b55d c7bd 2cbb e3bc 472c 4bbc
000002e0: 01fe 593d 7530 d93c 5acd b0bd 339c c33d
000002f0: 1c33 c0bd 28c5 e4bd 35eb 723e 4173 3fbd
00000300: 163c f8bd a5f1 6a3e 648c 01be ae96 31be
00000310: 2324 2bbe f243 fdbd 9bd2 873e 8c49 ac3d
00000320: 2639 fa3d 058d 61be b0a7 56be 8ad9 cc3d
00000330: 6280 563d 0ae0 22be 46d9 b8be 1076 1cbe
00000340: db07 bbbc 1230 c0bd ea04 873d 58e5 da3d
00000350: ab3f bfbd f731 3b3d 0664 d43d 7724 a2bd
00000360: cd4c f53d a023 cf3d b6fb 5bbe 5246 82bc
00000370: a909 47be b7b1 57be 57c9 6abd 1f26 debc
00000380: 060b 913d 0774 15be e267 a7bc 958a fdbc
00000390: 5479 623d 5bef 9fbc f4f2 66bc af22 7f3d
000003a0: e4d3 16be cfe1 b93c ef40 c23d 85f5 23bc
000003b0: 5a89 d13d 7791 a03d 602a 143e 20aa b63d
000003c0: 7b43 823d 11ae b2bd af6d 6b3d 0c1d ae3c
000003d0: 0be8 a2bd a60b e8bd bac2 ec3d 01fb 6ebe
000003e0: c733 7cbd 4081 403c efa3 0dbe a4dc cdbd
000003f0: 72e2 aabd 6e5c e8bd 09ad e23d c8a5 8fbd
0.18368419 -0.08857067 -0.08041437 0.080453694 -0.05864273 -0.24458195 -0.14118043 0.06120901
0.094307244 -0.10864797 -0.09727031 -0.0029526032 -0.079295464 -0.023442848 -0.11122387 0.062177137
-0.0037370601 -0.0734338 0.10353819 0.12529023 0.14578515 0.09654263 0.12182125 0.09415656
0.057671785 -0.07722122 -0.019907461 0.059692696 -0.07754844 -0.06934639 0.0789342 0.0056823837
-0.11460038 0.15395159 -0.047514644 -0.027495991 -0.09997241 -0.10087302 0.053834155 0.056995656
-0.011806378 0.028543822 -0.11749765 -0.0348934 -0.077444054 0.024762174 0.015127431 -0.05380795
-0.03750833 0.04884345 -0.042320557 -0.07514308 -0.100426905 -0.10876119 0.017667647 0.14725912
0.12005007 0.018353986 -0.033873245 0.035876416 0.042804185 -0.09060697 0.052937508 -0.06815493
-0.05925206 -0.036331583 0.066504054 0.11028814 -0.040845003 0.11513363 -0.0567125 -0.033544146
-0.15179373 -0.09591884 -0.0068695005 -0.1307342 0.048200164 0.079406984 -0.06581432 -0.047731783
0.030081583 -0.08447348 -0.09649161 -0.046222165 -0.008098102 -0.05367249 -0.017031496 0.023812588
0.07588932 0.11982091 0.09049552 -0.10938948 -0.028187474 0.10192873 -0.13486655 -0.17405641
0.07970279 -0.11446971 -0.12679386 0.021225555 0.027242888 0.011180408 0.0892044 0.21329497
0.079558864 -0.1375417 0.18492514 -0.03771342 -0.034840804 0.11672263 0.033396415 0.07967203
0.027739652 -0.011973637 -0.10213818 -0.13099433 -0.0090149185 0.0064964266 -0.026129626 0.18089175
-0.017771946 0.111396424 -0.019837137 0.13086884 0.028269386 0.17073356 -0.13162853 -0.1724937
-0.20343433 0.08665657 -0.0934579 -0.094059706 -0.11957306 0.040160146 0.02892821 0.056232303
-0.04197287 0.06680819 -0.027530387 0.041162275 -0.06667879 0.018166376 0.08467926 -0.012398507
0.66642106 0.1777215 -0.3876921 0.059338313 -0.31196806 -0.48377255 -0.42399237 0.263175
0.3404492 -0.04758873 -0.04972757 -0.011481482 -0.05028546 -0.05848019 0.013406807 0.019063154
0.09420726 0.08981169 -0.03128163 -0.13135445 0.065930575 0.06911937 -0.011211746 0.12012431
0.12159813 -0.07001 0.12918809 0.11722188 -0.37766495 -0.29951867 0.39784536 -0.12235091
-0.18390234 0.1403858 0.06602983 0.17057705 -0.11826504 -0.0973467 -0.027799211 -0.012400693
0.053220753 0.026512364 -0.08632918 0.09551277 -0.09384748 -0.11170417 0.23722537 -0.046740774
-0.121208355 0.22943743 -0.12651211 -0.17342636 -0.16713004 -0.12366475 0.26527867 0.084124655
0.122179314 -0.22026451 -0.20962405 0.1000243 0.05236853 -0.15905777 -0.36103266 -0.15279412
-0.022830894 -0.09384169 0.06592734 0.10688275 -0.093383156 0.045701947 0.103706405 -0.07917111
0.11977539 0.10114217 -0.21482739 -0.015902672 -0.19437279 -0.21063887 -0.05732092 -0.027117787
0.07082181 -0.14595042 -0.020435277 -0.03094987 0.05529149 -0.019523313 -0.0140960105 0.062288936
-0.14729267 0.022690682 0.09485041 -0.010007267 0.10231276 0.07840245 0.1446929 0.089191675
0.06360527 -0.08724607 0.05747765 0.021254085 -0.07954415 -0.11330347 0.11560579 -0.23337938
-0.061572816 0.011749566 -0.13832067 -0.100518495 -0.08343972 -0.113457546 0.1106816 -0.07014042

net.1.bias f4 [8]
00000000: 0627 253d 12dc 4a3b 2461 14bc 908b a0bd
00000010: bef9 6e3d ed6f 96bd 3e51 aa3c 653e 2f3d
0.04032042 0.0030953926 -0.009056363 -0.078391194 0.05834364 -0.07345567 0.020790692 0.042784113

net.2.weight f4 [16, 8, 3, 3]
00000000: 4bed 743a 9876 00bd 65db a1bc 7674 623d
00000010: 8295 86bd 293b a13d b720 b03d b684 f8bc
00000020: b800 ea3c 4ae0 a63b 17b9 e4bd 34c5 583d
00000030: c42f 80bd 3063 c7bd 49e9 063d 1f03 7f3d
00000040: 428f 943d eb91 a83d 310e 31bd b876 1e3d
00000050: 09ba bdbd 6165 2f3d f317 92bd 5a17 743d
00000060: 0c2c f13d 8164 1a3c 8573 903d 8188 9d3d
00000070: 3fc8 f73d 50bd be3d 052b b43d 2ecd 0c3e
00000080: d250 9f3d 0c84 933d e1d1 853c cb69 c23d
00000090: 6b81 163c 9cf5 43bd 57f8 9b3c fe69 913d
000000a0: 4d97 183e ea13 f43d 59c4 63bc 3c2e a33d
000000b0: e128 d0bd 4b8e b9bd 5d04 3b3d d3d7 a03b
000000c0: 9e4b 833d b5bc c23d 93ed 223d 43ff 02bb
000000d0: 7705 8cbd 4718 6c3d a56e f4bd ce38 33bc
000000e0: 0060 51bd d02c e2bd b0e8 cebc 75ca 0dbe
000000f0: 4a54 13bd 52c9 273c fb57 00be fbf4 a13d
00000100: 90cd dbbd 3469 16be 4ee3 013d 31ae abbd
00000110: b08c be3c d377 863c 8e59 be3d 50e1 50bc
00000120: 2efc b23d e75a 2bbd b5f5 823d 783c 24bc
00000130: b5a9 74bd 1ced 243d 0cf2 253e a998 c7bd
00000140: 4167 453c 5dd5 42bd 00b2 48bd 8949 89bd
00000150: 6a84 013e 8e27 f93d 74de 83bd c0eb bf3d
00000160: d188 4fbd dc84 a9bd c91d 2f3e 4097 4a3c
00000170: 8a7c 513d c907 a6be 0432 19bf ee94 bebd
00000180: d769 cf3e 576a 90be b268 e53e 4e24 073e
00000190: 6eec 9c3b f630 bf3d b81b 87bd 5567 21be
000001a0: 838f 50bd 3833 023e 812a b1bd 1ddc 6c3d
000001b0: 7302 9f3d 10cd 58bd f310 67bd 1a82 75bd
000001c0: 4a1e 9bbe f3a6 02be c9ce 063f 6e87 6ebd
000001d0: b4c0 1e3e b3dd 283e 12c0 5fb9 84f4 893d
000001e0: d8b8 b6bd 8978 2bbe e7a2 2dbe d8ec 933d
000001f0: b3f8 f6bd 0594 acbd 3915 6fbd e7a3 09be
00000200: a415 8ebc d37e cb3d af2a db3d aac2 023e
00000210: 2465 c1bd 8d23 8c3d 56cb 09bd 83d2 44bd
00000220: 6469 f4bd 561b 813d 86db f43d a9a5 96bd
00000230: b2cd 9d3d 0e80 a23d 15e5 9bbe 2c90 c13d
00000240: a1ea 0ebb e44b e3bd 18b4 ac3d 57d7 343d
00000250: 52be 10bd 1d70 af3d 052c 2ebd 4e48 23bd
00000260: f25e b3bd 9a50 b83d 55b7 0b3e 4b23 8b3d
00000270: 85db 8ebd 7397 c6ba 02ee d2bd 7da3 85bd
00000280: 88eb 0fbd f5fa 85bd 4979 98bd 409b e73c
00000290: dc8b cdbd 0c42 d63b 7b91 ce3c e2e0 ba3e
000002a0: 6494 6dbe 6fdc 953d 5064 8cbe 190a debc
000002b0: fe63 443a 44ea cebd 5da5 9ebb b4bd b23b
000002c0: 6d67 2f3e c097 1abe 10f9 83bc d051 44bc
000002d0: 0a4a a2bc 9d23 2bbd 3430 c8bc 865d 0c3e
000002e0: e4c3 f03d 060f 0a3e e865 f03d a010 5abd
000002f0: 7685 9abd 0a05 113d 0691 993d 90f0 debd
00000300: 21f3 b13d 7427 bebd e10c 7f3d 5517 8fbd
00000310: 33ce 853d c666 d23d 8172 913d ab7d ee3c
00000320: fcfe 683d 1445 9fbd f8a9 f3bd 92eb 0bbe
00000330: dadc 3c3c 03d3 0fbd 022e 71bd 8aa6 123d
00000340: 52b6 b7bd 9755 c83c e765 4b3b ff2c 8ebd
00000350: fbe1 083e bd64 2dbe c716 cb3d 974f f53c
00000360: f521 453d 4021 643d 1ebe d5b9 2da5 b3bd
00000370: 77dd 30be cfb5 00be 933a 07bd fd6b 29be
00000380: b82a 4fbc d64b f0bc 8bb3 a8bd 24e0 64bd
00000390: 46b5 ad3d 9b88 c63c fc75 933d d95d 923d
000003a0: cf1b 1d3d bd6c eabd 22f8 443e e668 83bd
000003b0: 6856 efbc f3a3 1d3d 67f3 7cbd ea05 6b3d
000003c0: 7a04 933d a2e0 c4bd b69b 493d bac8 75bd
000003d0: a934 d3bc 4706 023d 29fa 283d f159 b1bd
000003e0: 2a76 83bc aa79 fd3d 3b4a 8ebd 1f24 1a3e
000003f0: acbb 133e be1b b73b 1a57 e1bd 3301 d7bd
0.0009343221 -0.0313631 -0.019757936 0.055286847 -0.06571485 0.07872612 0.0859999 -0.030336719
0.028564796 0.0050926553 -0.111681156 0.052922443 -0.062591106 -0.097357154 0.03293732 0.062258836
0.07253887 0.08230957 -0.043226425 0.038687438 -0.09263999 0.04282129 -0.07133474 0.059592582
0.117759794 0.009423376 0.070532836 0.07692052 0.12098741 0.09313452 0.08797268 0.13750145
0.07779087 0.0720292 0.01633543 0.09492835 0.009186129 -0.047841653 0.019039316 0.071002945
0.14901467 0.11917861 -0.013901793 0.07967803 -0.10164047 -0.09060343 0.045658458 0.0049085408
0.06410907 0.09508649 0.03977735 -0.0019988574 -0.0683698 0.05764034 -0.11935166 -0.010938836
-0.051116943 -0.110437036 -0.025257438 -0.13846762 -0.035969056 0.01024087 -0.12533562 0.079080544
-0.10732567 -0.1468857 0.031710915 -0.08382834 0.023260444 0.016414559 0.09294425 -0.012749031
0.08739506 -0.041834738 0.06394521 -0.0100241825 -0.059732158 0.040265188 0.16205615 -0.097459145
0.012048543 -0.04756676 -0.04899788 -0.06703479 0.12648168 0.121657476 -0.06438914 0.093711376
-0.050667588 -0.08277294 0.17101206 0.012365162 0.05114416 -0.32427815 -0.5984194 -0.0930575
0.40510437 -0.2820613 0.4480644 0.13197443 0.004788927 0.093355104 -0.06597084 -0.15762074
-0.050918113 0.12714851 -0.08650685 0.057827104 0.07764139 -0.052929938 -0.05641265 -0.059938528
-0.30296546 -0.12758999 0.5265928 -0.058234625 0.15503198 0.16490822 -0.00021338489 0.06736091
-0.08921975 -0.167452 -0.16956674 0.07222909 -0.12059154 -0.0842667 -0.05836985 -0.1344143
-0.017344303 0.09936299 0.107015006 0.12769571 -0.09443119 0.06842718 -0.033641182 -0.048052322
-0.11934164 0.06304042 0.11955933 -0.07355816 0.07705249 0.07934581 -0.30448213 0.09451327
-0.002180733 -0.11098459 0.08432788 0.044150677 -0.035337754 0.08566306 -0.04252245 -0.039863877
-0.08758344 0.089997485 0.13644154 0.06793841 -0.06975464 -0.0015151337 -0.10299303 -0.065253235
-0.03513673 -0.06542007 -0.07445008 0.028272271 -0.10036442 0.006538635 0.025215855 0.36499697
-0.23201138 0.07317435 -0.27420282 -0.027104424 0.00074917066 -0.10103276 -0.00484149 0.0054547433
0.17129298 -0.1509695 -0.016109973 -0.011982396 -0.019810695 -0.04178201 -0.024437048 0.13707551
0.11756113 0.13482293 0.11738187 -0.05323851 -0.07544987 0.035405196 0.07498364 -0.108857274
0.08688951 -0.09284869 0.06226814 -0.06986872 0.0653347 0.10273509 0.07101918 0.029112658
0.056883797 -0.077768475 -0.11897653 -0.13664082 0.0115272645 -0.035113346 -0.058881767 0.035803355
-0.08970322 0.024454875 0.003103608 -0.06942176 0.13367455 -0.1693296 0.09916454 0.029945178
0.048128087 0.055695772 -0.00040768174 -0.08771739 -0.17271982 -0.12569354 -0.033014845 -0.165451
-0.012644462 -0.029333036 -0.0823737 -0.05587782 0.08481841 0.02423506 0.07200238 0.07146806
0.0383566 -0.114465214 0.1923528 -0.06416492 -0.029216006 0.038486432 -0.061755564 0.057378687
0.07178588 -0.09613158 0.049220763 -0.06000588 -0.025781946 0.031744268 0.041254196 -0.08659733
-0.016047556 0.12376721 -0.06947752 0.15052842 0.1442706 0.005588024 -0.110029414 -0.104982756

net.2.bias f4 [16]
00000000: 99ef 7dbd 7067 05bd 18ab f93c c62e b93d
00000010: dd94 823c 814f e4bc cf9e 583d 78da 273d
00000020: 7ca9 853c ac65 543a bb78 323d cfc0 8c3d
00000030: c178 833c 86ac 4cbd 11c5 7d3d f209 d1bd
-0.061996076 -0.03256935 0.030477092 0.090421245 0.015940124 -0.027869942 0.052885827 0.040979832
0.016316168 0.00081023085 0.04357217 0.06872713 0.01604879 -0.04996922 0.061955515 -0.10206975

net.3.weight f4 [16, 16, 3, 3]
00000000: 4d88 fa3c 7667 0c3d 37d1 95bb 11b2 acbd
00000010: bf12 fa3c b496 a0bd d588 4ebd 8245 a43c
00000020: 25e3 ee3c 7352 bcbe 8e92 a33d 544c abbe
00000030: 6aeb aebd 48e4 b13e 45f7 373e e66a 36be
00000040: 0da9 1ebe 4166 fbbd 15c6 ca3d b2c3 27be
00000050: cd44 833d eec6 1ebe 5b2d b83d fca9 d13b
00000060: d6ac 2dbd 0f7b 403c 397d a13a 9e9c 3cbd
00000070: a858 063e 1acd 80bd 50ec 163c 91ec 023c
00000080: 580e 783d 3853 dcbc af7e 86bd 2151 f33c
00000090: d3cf c8bd 5714 88bc cf6e 22be a57f 1bbd
000000a0: 15f6 a6bd 4836 0c3c 1fe6 e33d 64d2 d73c
000000b0: 1767 b63e 0bc2 6d3d 416f b43c 8088 97be
000000c0: bdd1 8cbe ce4b aa3e 6a4b 203e 8bc7 0d3e
000000d0: 51f3 88be 66e4 92be 1a17 98bd c56d 2a3d
000000e0: 62f5 63bd 8033 053e 8c2e 3b3d 0966 083d
000000f0: 529d 823d 7f59 423d daf6 79bd 44bb 983c
00000100: 0100 723d 8c61 ad3d 4b5e 03be 5ca9 5c3d
00000110: 6395 5fbb d202 4a3d 7257 02be c1e9 063e
00000120: 1524 513d fa75 a13d 3665 4bbe b1e4 babc
00000130: 4ce6 76be b357 c3bb 2308 2cbc 7861 583d
00000140: 9848 2b3d 8715 be3b 1593 c6bb 23bc ac3d
00000150: fe16 b03d c058 9e3b 14be ef3c 8dd2 dc3a
00000160: 71e8 a1bc 8331 c1bc fe7d f83c 329b a9bc
00000170: d119 fcbd 4727 1b3c a24a f6bd a23a 88bb
00000180: cc92 2fbd b98e f7bd c79b 6cbd f445 24bd
00000190: 7666 bc3d ed42 543d 0123 db3d f4e1 c93b
000001a0: 5003 563d 29ed 543d 3e38 bfbb 1a4c 04bd
000001b0: f5dc e2bd 32bf 543d 1f68 9e3c d2fd 64bd
000001c0: a045 473c cdba 313d b9da cfbc 93cc 41bd
000001d0: 8964 0cbd 7143 903d d1fd fcbc 087f 8f3c
000001e0: e7ca b2bc c3be 9abc f470 ad3c 39b8 1ebd
000001f0: fe36 d8bc 98c3 c9bd a6e9 07be 8a42 a83d
00000200: a6c8 65be b8a9 b63c 0aef 6bbd 0ebc 40bd
00000210: acf0 313d ca1b 9abd c410 63bd 8c7b 563d
00000220: a607 d33d e873 233e 3b15 a53c 807c f63d
00000230: c123 053d daa7 c4bc fc32 d7bd 2f46 903d
00000240: 9b99 4b3d c5a3 0b3d 1032 e73c b0b8 c8bd
00000250: 60b8 723d 4272 f8b9 09d0 83bc 987d 353d
00000260: 184d 89bc d669 50be 9d14 1b3e fe3c 8bbe
00000270: 2cc6 6ebc cb27 543e a535 253d 87bc 81bd
00000280: 7865 81bd 4561 c3bd e5c3 213d add5 fbbc
00000290: 7e59 48bc 8399 dfbd 8317 a03d d170 bdbd
000002a0: 2763 8c3d 9233 9dbd e1ac d8bc 4fa4 85bd
000002b0: ad9c 903d 3193 bbbd 867d cabb a38b d53d
000002c0: 452c ac3d aa93 23bd 9449 533c 2125 2b3d
000002d0: 8a19 13bc c3d2 e9bc 8e39 95bc 3a8b bdbd
000002e0: 5d52 8abd 530c ab3c d1e6 6d3d f00a 48bd
000002f0: b36a a23e 08bd c5bc 7fea 4fba a7f2 87bd
00000300: 2e9c 42be 09b6 b03e 110a 003d ea16 223e
00000310: 4466 9ebd 7ac8 58be b729 babb d4a6 18bd
00000320: 03c3 d43c e50b 143e b85f 413c 7bd9 96bc
00000330: 6813 3cbd e410 1bbd c785 63bb e6a1 8abc
00000340: 2f24 69bd fc60 9d3d ea9e 42bd 1178 9c3d
00000350: 32a7 14bd cd1b 83bd 33e7 88bd f689 a03d
00000360: 1c42 793d 0990 943c 90a1 6fbd 4c88 68bd
00000370: f583 3cbe e91d 523e dc3e 2ebc f336 51bc
00000380: eb73 80bd 4a31 a43d dc44 633c c45c 5ebc
00000390: bb10 793d 3175 f7bd 7c2c 5b3d 0313 59bd
000003a0: ce56 dc3c 280f 253d 8a2f 9bbd d2e8 033d
000003b0: 55ee 1a3c a72c 6c3b 4239 68bc 29db 68bc
000003c0: f802 683c 8433 bf3c d39b 1ebd 3f05 33bc
000003d0: 20e3 043e 9a23 8dbd 6b12 453b d4ee 9e3d
000003e0: 75e5 f3bc c41c 1dbd b1f5 35bd b33a ce3c
000003f0: 2608 acbd aa66 c4bb a0eb 973b 3c52 66bc
0.030582571 0.034278356 -0.0045720595 -0.08432401 0.030526517 -0.07841244 -0.050423462 0.020052675
0.029161045 -0.36781654 0.079869375 -0.3345667 -0.085409954 0.34744477 0.1796542 -0.17814216
-0.15494175 -0.12275363 0.099010624 -0.16383246 0.06409607 -0.15505573 0.08993026 0.0063984375
-0.042401157 0.011748089 0.0012320644 -0.0460478 0.13119757 -0.0628912 0.009211615 0.007990972
0.060560554 -0.02689515 -0.06567132 0.029701771 -0.09805264 -0.016611261 -0.15862583 -0.03796353
-0.08152405 0.0085578635 0.111278765 0.02634544 0.35625526 0.058046382 0.022025706 -0.2959633
-0.27503768 0.3326096 0.15653768 0.13845651 -0.26748136 -0.2868988 -0.07426281 0.04160859
-0.055653937 0.13007927 0.045698687 0.033300433 0.06377663 0.04744863 -0.06102643 0.018643983
0.059082035 0.08465871 -0.12828939 0.05387245 -0.003411614 0.049319096 -0.1272867 0.13175108
0.0510598 0.0788383 -0.19862828 -0.022814127 -0.24111289 -0.0059613823 -0.010499987 0.05282733
0.041817278 0.005800906 -0.006060014 0.08434322 0.085981354 0.004832357 0.029265441 0.0016847417
-0.019764157 -0.02358318 0.030333515 -0.020703886 -0.123096116 0.009469814 -0.12025954 -0.00415738
-0.042864606 -0.12087769 -0.05776575 -0.040105775 0.091992304 0.051821638 0.10700036 0.006160969
0.052249253 0.051983986 -0.005835562 -0.03229914 -0.110773005 0.05194015 0.019336758 -0.055906124
0.012162596 0.043391038 -0.02537285 -0.047314238 -0.034275565 0.070441134 -0.030882748 0.017516628
-0.021825267 -0.01888979 0.021172024 -0.038749907 -0.02639341 -0.0985176 -0.13272724 0.08215816
-0.22439823 0.022297725 -0.057601012 -0.047054343 0.043442413 -0.075248316 -0.05543591 0.052363917
0.10304193 0.15962183 0.020151725 0.12035465 0.0325048 -0.02400582 -0.105077714 0.070446365
0.049707036 0.03409173 0.028222114 -0.09800851 0.059257865 -0.00047387375 -0.01609041 0.04430923
-0.016760394 -0.20352873 0.15144582 -0.2719497 -0.014573615 0.20718305 0.040334363 -0.06334787
-0.06318182 -0.09540037 0.03949346 -0.030741537 -0.012228368 -0.10917952 0.078169845 -0.09250034
0.06854849 -0.07675852 -0.026449623 -0.0652548 0.070611335 -0.09158934 -0.0061795143 0.10427024
0.08406881 -0.039935745 0.01289596 0.041783456 -0.008978257 -0.028542882 -0.01821592 -0.09255071
-0.06753991 0.0208799 0.05808145 -0.048838556 0.3172203 -0.024137989 -0.0007931366 -0.06638079
-0.1900489 0.34513882 0.0312596 0.15829054 -0.07734349 -0.21170226 -0.0056812423 -0.037268475
0.025971895 0.14457662 0.011802606 -0.01841425 -0.045916945 -0.037857905 -0.0034717189 -0.016922902
-0.056919273 0.07684514 -0.047514834 0.07640088 -0.036292262 -0.06401787 -0.06684723 0.07838814
0.060854062 0.018135088 -0.058503687 -0.056770608 -0.18409713 0.20519222 -0.010635104 -0.012769449
-0.062721096 0.08017214 0.013871398 -0.013571922 0.06080697 -0.12082899 0.05350922 -0.052996647
0.02689686 0.040297657 -0.07577427 0.032204457 0.009456237 0.0036037357 -0.014173808 -0.014212408
0.014160864 0.023339994 -0.038722824 -0.010926544 0.12977266 -0.06891556 0.0030070792 0.077603966
-0.0297725 -0.03835751 -0.044423763 0.025174474 -0.08399992 -0.005993684 0.004636243 -0.014057692

net.3.bias f4 [16]
00000000: 5e84 873d 8f11 b13c 927c ac3b 8e76 2c3c
00000010: b94d b0bc 24c5 6f3d 6f22 d23c fa30 253d
00000020: de49 0c3c ec56 d3bc 2f1f 1dbc 916c 47bd
00000030: 62ab 26bc 2dd6 86bd bf0b 04bd 0d92 67bd
0.06617044 0.021614818 0.0052638734 0.0105263125 -0.021521436 0.058537617 0.025651185 0.04032991
0.008562533 -0.025798284 -0.009589954 -0.04868752 -0.010172697 -0.065838195 -0.032237764 -0.05653577

net.4.weight f4 [32, 16, 3, 3]
00000000: 1920 52bd acb5 ccbd 276c 3ebd a64c 813d
00000010: 5564 523e 2ab1 87bd c4ff 12bc af80 96bd
00000020: 1bc8 8abd b7a8 40bd fae2 e7bb 1fa5 aebc
00000030: 95bd bfbd 2404 cb3d d117 853d e129 4a3d
00000040: 77d9 9f3d 84ca 69bd 400e f93b 71b7 2f3c
00000050: d27f b23c 50b3 8bbd 3fab bcbd 9ecc 8e3d
00000060: f34b 9b3d def0 99ba 12ee be3d ddb7 9e3d
00000070: 7a8c b53d 4a8b 38bd 6ed1 bbbd 8df1 393e
00000080: 4737 54bc 9eab 223d 9688 42bd 73a5 5a3d
00000090: aed3 81bb 3cb6 96bd 75ea d63b 731f ef3c
000000a0: dbeb 56bd d128 94bd c9e2 6ebd 5789 50bd
000000b0: 168c a53c 2590 f7bc 2b3e a0bb b42e 93bd
000000c0: a5d7 2d3d fbcc 04be 3e0a a5bd f908 c43c
000000d0: dbe5 13bd 1748 24bd aaaa 1bbd c75e 9b3c
000000e0: adff 61bd 33c1 36bd 969a febd e686 8fbc
000000f0: 3edd b0bc 8cd4 883d 727f 74bd 70ed cbbc
00000100: 892e 97bd f8bb c8bc b9b0 7cbd 389d 323e
00000110: 2098 4d3d 9564 c33d a27a d8bb 6589 fc3d
00000120: b4a8 26bc 8b32 a8bd 63e2 93bd 4f60 26bd
00000130: 3790 58be f9b9 d13d 55e4 963d bf9b 503e
00000140: 2682 7b3d d954 58bd cdbe 57bd a9a3 303d
00000150: 32c0 c7b8 dd86 03be 8a66 15bd e7c2 a1bd
00000160: 4236 88bd 05ba 16bd 387a 013d 8bd6 923d
00000170: e9c0 713c 0029 8c3d 5a0b a23d 2ad1 e3bc
00000180: 7ccf d03c 1f6c 26bb 2b07 ec3c 742f 163e
00000190: 3887 713d c808 673d 22ee 2e3d 535c acbd
000001a0: f954 353d a5dd a53d 814c 95bc ad69 673d
000001b0: acfb b43a 05ef 953d 7e9f 873c 1719 1e3d
000001c0: 4280 9abd ff9c 1fbd e94e 62bc c44b 9fbc
000001d0: ec42 1fbd b617 9cbd 75de 9c3c 6ebf 4fbd
000001e0: 6a1f 0cbd deeb eebd 0239 eebc 6505 bbbd
000001f0: ed63 863d fe8e 3d3c d64e f63b cb46 47bb
00000200: bb64 153d 5bc6 5ebc dcb9 3fbd c7d8 a3bc
00000210: 44b4 5fbd 17a7 a6bd c533 a3bd 650e 71bb
00000220: c3bf 2d3b 825b 9dbd 0594 32bd b851 15bd
00000230: ddc3 9abc 644e 76bd 2085 7dbd aac7 4d3d
00000240: 9856 1a3d 9f25 673c a571 a8bc 2da0 973c
00000250: c107 863d 1d29 58bd ee37 d9bc 17a6 953d
00000260: cbfb 95bd c166 243d f7fa 523d be25 46bd
00000270: 7a68 143d fd5e db3d c933 9abd f17f 4b3d
00000280: b11b 1b3d 3bee 993c 72f8 b7bd 4f48 84bd
00000290: d789 4bbc d645 99bd 38c0 d0bd 7a6d c03d
000002a0: d6b8 1a3c 0207 92bd 92b1 e33d 1b50 fdbc
000002b0: e4a7 dd3c 9f75 793d 18c2 69bd 1a90 013e
000002c0: 209f 0abb b9f7 c9bd e0bc bf3c b195 b1bd
000002d0: c1be 2d3d 3fa0 773d 2001 0bbd 2bd1 2ebd
000002e0: 02b9 30be 0a30 9d3d 48be 673d 9290 ab3d
000002f0: 9705 793d 6bcf 8fbc c92a 543d 5404 843d
00000300: 95f3 033d ac15 98bd 402e b23c fa4e d4bd
00000310: 6041 1ebd 41f7 80bd 8b41 7f3d 6a42 3d3d
00000320: e09a cebb ef3a 8abc feb5 d8bd 809b 3cbd
00000330: 8986 c63c c958 90bd b634 0e3d 6d9c 183d
00000340: c35c 2d3d c03f a93d 1734 23bd 03be f03d
00000350: ce85 0fbd 3ca2 fd3d 0d57 12bd c95e a53d
00000360: a304 d9bd fab2 2cbe 9a73 18bd c36a 18bc
00000370: 1f1a babd 55d9 183e 1366 f63d 41ae 243e
00000380: 5b36 8f3d 58d6 a93c 4496 de3b c6bd 0a3d
00000390: d896 70bd 6412 adbd 7f34 253d 1cfb 1a3c
000003a0: 93db f93c 5e68 1f3c 5e93 063d 13b0 1f3c
000003b0: e959 88bd 187c 2a3d 6cbe 1b3e e7d2 1abd
000003c0: 5850 1eba a175 94bd 6eb2 60bd eb5b 803d
000003d0: d624 a1bd 5992 2f3d 79c1 143c f7e9 f8bd
000003e0: a4e4 8cbd f429 943c 25bd 293d 6c65 683d
000003f0: 71c3 9a3d 3ea3 423d 619c aa3b 7931 2e3d
-0.051300142 -0.09995589 -0.04648986 0.06313448 0.20546086 -0.06625588 -0.008972112 -0.07348763
-0.06776448 -0.0470359 -0.0070766183 -0.02131897 -0.09362332 0.09912899 0.06498683 0.049356345
0.0780515 -0.0570779 0.0076005757 0.010724888 0.021789465 -0.068213105 -0.0921235 0.069726214
0.075828455 -0.0011744758 0.09322752 0.07749913 0.088646844 -0.04505471 -0.09170805 0.1815855
-0.012952632 0.03971445 -0.04749354 0.05338044 -0.0039620018 -0.07358977 0.006558711 0.0291898
-0.052471023 -0.072343476 -0.058321748 -0.050912227 0.0202084 -0.0302201 -0.0048902235 -0.07186642
0.042441983 -0.12968819 -0.08058594 0.02393006 -0.03610788 -0.040107813 -0.038004555 0.018966092
-0.055175472 -0.044617843 -0.12431829 -0.01752038 -0.021589871 0.06681165 -0.059691854 -0.024893492
-0.07381923 -0.024503693 -0.061691973 0.17442787 0.050193906 0.09540669 -0.006606416 0.123308934
-0.010172058 -0.08212765 -0.07220914 -0.04061919 -0.21148764 0.102405496 0.0736777 0.20371912
0.061403416 -0.052815292 -0.052672196 0.04312483 -9.5248586e-05 -0.12844415 -0.036474742 -0.07898503
-0.06650974 -0.036798496 0.031610698 0.07169827 0.014755466 0.06843758 0.079123214 -0.027809698
0.025489561 -0.0025394035 0.028812012 0.1466654 0.058966845 0.05640486 0.04270757 -0.08416047
0.04427049 0.08098916 -0.018224956 0.056497265 0.0013807914 0.0732098 0.016555544 0.038598146
-0.075439945 -0.038968083 -0.013812759 -0.019445308 -0.03888218 -0.0762171 0.019149045 -0.05071967
-0.034209646 -0.11666082 -0.029079918 -0.09131888 0.06562028 0.0115697365 0.007516722 -0.0030407186
0.036473017 -0.013597096 -0.04680811 -0.020000828 -0.054615274 -0.081373386 -0.07968859 -0.0036782261
0.0026512004 -0.07683469 -0.043598194 -0.036454886 -0.018892223 -0.060133353 -0.061894536 0.050239243
0.03768024 0.014108091 -0.020562002 0.018508995 0.06544448 -0.052773584 -0.026515927 0.0730707
-0.07323416 0.040137056 0.05150887 -0.048375838 0.03623245 0.10711477 -0.075294085 0.04968256
0.037868205 0.018790355 -0.08982934 -0.06459104 -0.012423 -0.07484023 -0.10192913 0.09395881
0.009443482 -0.07130243 0.11117853 -0.030921986 0.027057596 0.060903188 -0.057069868 0.12652627
-0.0021151975 -0.098617025 0.023405492 -0.086711295 0.042418245 0.060455557 -0.03393662 -0.042679947
-0.17258075 0.07675178 0.05657795 0.08377184 0.060796347 -0.01755496 0.051798616 0.06446138
0.03221472 -0.074260086 0.02175057 -0.10366626 -0.038636565 -0.0629716 0.062318366 0.046205916
-0.0063050836 -0.016873805 -0.10581587 -0.046046734 0.024234073 -0.070481844 0.034718238 0.037258554
0.042324793 0.082641125 -0.0398446 0.11754992 -0.035039715 0.123844594 -0.03572755 0.080747195
-0.105965875 -0.16865149 -0.03721962 -0.009302798 -0.090870135 0.14926656 0.12031188 0.16082098
0.06992789 0.02073209 0.0067928154 0.03387239 -0.058737606 -0.08450773 0.040333267 0.009459283
0.030500209 0.009729473 0.032855384 0.009746569 -0.06657774 0.04162225 0.15209359 -0.03779879
-0.0006039194 -0.072489984 -0.054857664 0.06267532 -0.07868354 0.042864177 0.009079331 -0.12154
-0.06879547 0.018086411 0.041440148 0.05673735 0.07556809 0.04751896 0.00520663 0.04252765

net.4.bias f4 [32]
00000000: eb25 663d 81bf aa3d d260 73bb f87b 213d
00000010: a3f5 11bd 96f4 08bd eb07 65bd 85c0 d9bd
00000020: 51d8 48bc b647 8abd 976c 8bbc 8c4c 9b3d
00000030: e450 673c 7327 9cbd 5d9d 35bd 64d5 97bd
00000040: 024f dcbc 3fd5 4abd e817 e93b 5f83 693c
00000050: a6d4 493d 6e65 a0bd 4874 cebc 8b29 b2bd
00000060: 1b00 413d 69b8 853c 9694 a8bd 1488 45bd
00000070: 7e1f c3bc 83a8 19bd eae3 31bd bc93 b3bc
0.056188505 0.08337308 -0.0037136567 0.039424866 -0.035634648 -0.03343638 -0.055915754 -0.10632423
-0.012258605 -0.06751959 -0.017019553 0.075829595 0.014118407 -0.07624712 -0.044339526 -0.07413748
-0.026893143 -0.049519774 0.0071134456 0.014252513 0.049275063 -0.07831846 -0.025201932 -0.0869933
0.04711924 0.016323285 -0.082314655 -0.048225477 -0.023818728 -0.03751422 -0.043430246 -0.021921031

net.5.weight f4 [16, 32, 1, 1]
00000000: 8b82 d53c d50e 4f3e bc66 df3c 3f59 26be
00000010: ef57 82bd cf6f 8d3d ec6e 293d 3a92 1bbe
00000020: b1d2 d6bd 5833 26be 2a03 43bc 23d5 f33d
00000030: bc0e 19be fd7a 84bc 812d d83d 4dbc 2f3d
00000040: 087f 523c 1656 0ebd 08be 5bbe 8234 95be
00000050: 545d b2bc b1de 92bb 4d97 3e3e ccbb 673d
00000060: 4d78 d1bd d238 613d 87bd bf3d ba7c a93d
00000070: f6e1 ac3d 09ed 22be bdd4 c23d 2a9e 80bd
00000080: ed00 e4bd 9d20 d4bc 46fb 993d b416 71be
00000090: c57f df3d 470c 5e3d 35b1 9ebd 9937 b93d
000000a0: d7f4 b13d 2617 fd3c 0f48 c7bc f389 7cbd
000000b0: cbb4 923d 75b2 033e ee58 b1bd e6b2 60be
000000c0: d677 843c eaf7 813e d567 033e 814a 79be
000000d0: 6d04 a2bc 682a 39be 9bdd a3bc 23c7 64be
000000e0: c149 e7bd e358 333e 9d6c f3bd 6183 6fbd
000000f0: a910 3d3d 4aaa ef3d 6cb3 24bb d9b4 94bd
00000100: 6585 c4bc 6a32 21be 0dbb 5b3d 399c 3a3e
00000110: 604d b1bd 1856 35be f4aa ae3c 9ab2 a7bc
00000120: 60c6 413e 858e 583e 93f7 623d 02e1 5ebe
00000130: 9547 e33d b551 173e a9d2 63be cc42 2a3e
00000140: 6495 da3d cc61 38bd 9dc3 abbd a9a5 93bc
00000150: 2b73 d53d 767b 06bd 5ab4 a7bd 4388 703e
00000160: 4f9f 94bb f732 50be a559 513e da97 cd3d
00000170: 5a80 49be 89ff 3bbc 98f7 353e 0464 dc3c
00000180: 85ef 1cbe fe1a 60be adfb a13d 7261 a13e
00000190: 4fdd 8bbe 6e48 ebbd 6152 6d3e 694b 833e
000001a0: f28d 03bd 03fd 4c3e 974b 9e3d 00dd bebd
000001b0: a9a0 543e 26a6 d53d 004d 86be 792d 77bd
000001c0: 2014 8dbe 791e 5ebb 9764 29bc 226f 823e
000001d0: 6eaa 08bd 6e3f 39bd 79d2 6cbe 9af1 883c
000001e0: f468 8e3c a5a9 60be 0bff 293e 369c aebd
000001f0: 974b 70be b072 b03c 5585 c7bc fb1d 733d
00000200: a497 093d cc56 53be 15a7 983d a0b7 4e3d
00000210: d74f 16be 6208 17be cbca cd3d 29e0 1ebd
00000220: 6be3 7abd e792 4f3e 2882 06be f02f 1abe
00000230: b57c debd f69d 5b3c daa7 08be 9400 5b3c
00000240: 729a 0abe 9235 2abe 27ef 913d 1c91 363d
00000250: 8ff4 ab3d f2ca 513c 7e24 26be f9ae e63d
00000260: 4929 69be 1c3b 27be bc94 ec3d 8554 2e3e
00000270: 2d18 49bc d6c4 623e 42ac 573e 55fa 1fbe
00000280: cef7 bbbc f60d 0ebd cc14 b73d 1cca bb3b
00000290: d9ff 4b3e 5962 4c3e d237 36bd 9c06 1ebe
000002a0: de00 e3bc 84b4 05be 5df4 a13d f71b f93b
000002b0: b77b 57be 8636 1ebe 4b03 8e3d 7b78 28be
000002c0: b70b 033d 375a 883c 0d31 bd3b eb90 a2be
000002d0: 203c bf3d c1a3 40bd 72bd 813e d941 38be
000002e0: 073a 093e a4ec 163e 16e5 80be f0e1 f1bd
000002f0: 97c0 713e 728f e6bd e5ca cdbd 6cba 01bd
00000300: 96e9 26be 88da 32be 4ae3 343e 03a5 873c
00000310: 6bd9 69be dfa9 453b 6707 ba3c d72e debc
00000320: 461d 19bc 4b1f 3d3e fcdb b33d 915f aabd
00000330: 7a65 bb3d 31aa b2bc 548e debd 93a3 113d
00000340: a57c 26be 7ccc 97ba 8257 1f3d 53df 453d
00000350: 8bb9 d03d c30a 513e 3b0c d8bc 3dab 103e
00000360: 0523 4dbd ce16 f0bd 458f 383e 495b 623e
00000370: db63 a0bd 0fd4 9fbd 9307 c33c 860b 18be
00000380: 2d08 143e 2bd8 aa3d 9418 d1bd 08f3 0cbe
00000390: a584 6a3e 0a5f 2a3e 55e5 3bbe 61a8 1bbe
000003a0: 9ef5 babd de29 c6bd 1d0d 853d c79e 2cbc
000003b0: a7e9 37be a4bf aebd 429d 813d 79ea 6cbe
000003c0: 066e d33d 0385 583e 01a0 953d 9631 8fbe
000003d0: ba4a 13be b729 42be 46dc 85bd d725 a8bd
000003e0: f61f 2bbd eaea 293e 3663 b53b 2abf 4abe
000003f0: ec7e 503c a494 babc ddcf 8fbc ee59 833b
0.026063224 0.20220502 0.027270667 -0.16244982 -0.06364428 0.069060914 0.04136555 -0.151925
-0.10489405 -0.16230524 -0.01190261 0.11905887 -0.14947027 -0.016171927 0.10555554 0.042904187
0.012847669 -0.034750067 -0.2145921 -0.29141623 -0.021773018 -0.0044821133 0.18612404 0.05657558
-0.10228024 0.05498583 0.09362321 0.08275743 0.08441536 -0.15910734 0.09513233 -0.062801674
-0.11132989 -0.025894457 0.0751863 -0.23543817 0.10913042 0.054210927 -0.07748643 0.090438075
0.086892776 0.030894827 -0.024326352 -0.061654996 0.0716339 0.12861045 -0.0865954 -0.21943244
0.016170423 0.25384456 0.12832578 -0.24344827 -0.019777501 -0.18082583 -0.02000313 -0.2234159
-0.11293364 0.17514376 -0.11885951 -0.058474902 0.046158466 0.11702402 -0.0025131358 -0.072610565
-0.023989389 -0.15741888 0.053645182 0.18223657 -0.08657336 -0.17708623 0.021321751 -0.020470906
0.1892333 0.21148117 0.055411886 -0.21765521 0.110976376 0.14777263 -0.22248329 0.16627043
0.10673025 -0.04501514 -0.0838692 -0.018023329 0.10422357 -0.032832585 -0.08188696 0.2348948
-0.0045355926 -0.20331942 0.20444353 0.10038729 -0.19677868 -0.011474499 0.17770231 0.02690316
-0.15325744 -0.21885297 0.079093315 0.31519657 -0.27317283 -0.11488424 0.23175956 0.2564347
-0.03211779 0.20018391 0.07729261 -0.09319496 0.20764412 0.10432081 -0.2623062 -0.0603461
-0.27554417 -0.0033892675 -0.010338924 0.25475413 -0.03336566 -0.045226507 -0.23127164 0.016716767
0.01738403 -0.21939714 0.16601197 -0.085258886 -0.23466335 0.021539062 -0.02435557 0.059354763
0.03359188 -0.20638579 0.07453743 0.050468087 -0.14678894 -0.14749292 0.10048445 -0.038787995
-0.06125204 0.20270883 -0.13135588 -0.15057349 -0.1086363 0.01340436 -0.1334528 0.013366837
-0.13535479 -0.16621998 0.07125693 0.04457198 0.08396255 0.012804734 -0.16224858 0.11263842
-0.22769655 -0.16331142 0.11551806 0.17024429 -0.01227383 0.221454 0.21061805 -0.15622838
-0.02294531 -0.034681283 0.089395136 0.0057308804 0.19921817 0.19959392 -0.04448683 -0.15432209
-0.027710374 -0.13057142 0.07907937 0.0076022106 -0.21043287 -0.15450487 0.06934222 -0.1645221
0.031993594 0.01664458 0.0057736696 -0.3175119 0.0933764 -0.047031168 0.25339848 -0.17993869
0.13401042 0.14738709 -0.2517478 -0.11810672 0.23608623 -0.11257829 -0.10048465 -0.031671926
-0.16300043 -0.17466176 0.17664829 0.016558176 -0.22836845 0.0030161066 0.022708608 -0.027121944
-0.009345358 0.18468969 0.08782193 -0.08319009 0.091502145 -0.02180967 -0.10866991 0.035556387
-0.16258486 -0.0011581327 0.038901813 0.04830868 0.101916395 0.20414262 -0.02637302 0.14127822
-0.050082225 -0.117231 0.18023403 0.22105135 -0.07831546 -0.07804119 0.023807323 -0.14848146
0.14456244 0.08342012 -0.10209766 -0.13764584 0.22902162 0.16637817 -0.18349202 -0.1520095
-0.09128879 -0.09675954 0.06496642 -0.010535902 -0.17960225 -0.08532646 0.06328823 -0.23136319
0.1032372 0.2114449 0.07305909 -0.2796752 -0.14383975 -0.18961225 -0.065361544 -0.082103424
-0.041778527 0.16593519 0.0055355085 -0.19799486 0.012725573 -0.022775955 -0.017555172 0.004008523

net.5.bias f4 [16]
00000000: 126b 373e 510b 42bd 7817 feb9 b49a 01be
00000010: 6e7a 1cbe 8681 14be 6bf8 25be f789 c8bb
00000020: 1578 26be d879 c3bd 71ac b63d ad1a 3c3e
00000030: fc3a 0a3c 2ca3 d8bd 7479 fe3d 0cd7 373c
0.17911938 -0.047374073 -0.0004846414 -0.12656671 -0.15281078 -0.14502534 -0.16208045 -0.0061199623
-0.16256745 -0.09544724 0.08919609 0.18369551 0.0084369145 -0.105779976 0.12425509 0.011220705

net.6.weight f4 [1, 16, 1, 1]
00000000: 0d58 44be 0877 a6bc c3a4 903e bb15 413e
00000010: 5076 a03e da09 8bbe 74dd 303e 1457 a7be
00000020: bfff 893e 1a00 a1be 5f4f 6e3e b539 9bbe
00000030: e00c 9fbe 0eb2 083e d6e9 2abe 298d 6bbe
-0.19174214 -0.02032043 0.28250703 0.18855946 0.31340265 -0.27155954 0.17271978 -0.32683623
0.2695293 -0.3144539 0.23272465 -0.30317464 -0.3106451 0.13349172 -0.16690764 -0.23003067
