ImageSegmentation/saved_model_pth/DilationCNN_nuclei_16_epoch150.pth (torch_old, 39454 bytes, 13 tensors)

net.0.weight f4 [8, 1, 3, 3]
00000000: 5b78 903d 11ea ef3d e08c b83e fe19 50be
00000010: af36 b43d bec8 aa3e 6a91 5e3d 78d9 193c
00000020: 82f6 673e 76ea 863d e7e3 62be 3eec 8b3e
00000030: 39da 443e 3c2d 143e b813 643e 6932 5a3d
00000040: a43a 69be 0447 4d3e d71d eabd 18d8 0cbc
00000050: 912a 4d3d 7a7a c03e ed62 96bd f1f5 b43e
00000060: aef5 b13e c258 64be 9e04 26be 63a2 243e
00000070: 32ac 2e3e 4223 9b3e e3eb 55be d647 e23d
00000080: eea5 bb3e ec15 793e 11ba 673e b3ed dc3d
00000090: 21da 933e 9af4 a0be 5ed3 fcbd 2829 5fbe
000000a0: 97f0 b8be 9815 b7be 6825 c9bd 84b5 43bd
000000b0: 3b04 85be c9ea eebd 4c05 bdbe 7e50 873e
000000c0: 796f 4abe 4fa0 a5bd aceb cbbe 80bc ae3d
000000d0: 4f65 4e3e 5897 6abe 5417 823e 37cb 16be
000000e0: 89f8 2c3e d5fe 293d 45f2 7ebe cc75 9a3d
000000f0: a54e bd3e 07c6 bc3e a721 87be a053 19be
00000100: ff56 c8be cca1 22be 0b70 32be 4cfb 743e
00000110: 5891 cfbe 901f a73e 0228 1d3e 96a8 4cbc
0.07054206 0.117145665 0.3604498 -0.20322415 0.087994926 0.3335628 0.054337896 0.0093902275
0.22652629 0.065876886 -0.2215725 0.27328676 0.1922387 0.1447038 0.22273147 0.05327073
-0.22776276 0.20046622 -0.11431473 -0.008596443 0.050089423 0.37593442 -0.07343087 0.35343888
0.3475775 -0.22299483 -0.16212699 0.1607757 0.17057875 0.30300337 -0.20890765 0.11048858
0.36650032 0.24324769 0.22629572 0.10787525 0.28877357 -0.31436616 -0.123450026 -0.21793044
-0.36121055 -0.35758662 -0.09821588 -0.04778053 -0.2597979 -0.116658755 -0.36918104 0.26428598
-0.19769086 -0.08087217 -0.3982824 0.08532047 0.20155834 -0.22909296 0.25408423 -0.14725958
0.16891684 0.041502792 -0.24897106 0.07541999 0.36974064 0.36869833 -0.26392862 -0.14973307
-0.39128873 -0.15882033 -0.17425554 0.23923987 -0.40540576 0.32641268 0.15347293 -0.012491366

net.0.bias f4 [8]
00000000: d3bb cc3d 0706 70be dd59 47be 6340 8ebe
00000010: d4c1 7e3d b4d5 7f3d 2212 3abe 825c 89bd
0.09996762 -0.23439799 -0.19467874 -0.27783498 0.062196568 0.062459663 -0.1817098 -0.067070976

net.1.weight f4 [8, 8, 3, 3]
00000000: 5fcb 503d 6481 ccbd f55c 03be fc7b bcbd
00000010: f879 4d3d 02c4 9b3d 76a8 fabd eba2 89bd
00000020: 8006 53bd de32 f3bd 84c4 d33d debf 8e3d
00000030: 3a1c 0dbd f2d5 3a3c 5851 1ebd 8b8b 9a3d
00000040: e9e0 cf3d 1fb0 fcbd 5e5b af3d 4d79 1a3d
00000050: a85e 5dbd c75d ac3d 1319 d2bc 6b0b a1bb
00000060: fcbd 993d ced5 0a3d d4a1 c93d dca4 1cbe
00000070: e409 24be 235b c5bd bebc 0cbe a7d2 23be
00000080: 211d 07be dcb3 5fbd 45a3 353c aca1 41bd
00000090: d22f f2b9 7f9a e13d d487 2d3e 8592 0b3e
000000a0: 772e 9d3d 86ae 603d efda c43d 2409 c5bc
000000b0: e8b0 f4bc f726 6fbd 63fe 0dbd 8673 dbbd
000000c0: ca8c 903d 6e7d 293e 0307 423e 4881 de3c
000000d0: d9ab 183e 8664 5c3e a5ec d1bd 7b56 cdbd
000000e0: 6c77 613d 561d 293c 7be9 22bc 1b83 853d
000000f0: be4b 8f3d ca7f cbbc 407f 6a3d ba27 973c
00000100: 53ba 823d 7e68 8abb d2fb ca3d bded c23d
00000110: 4283 c2bd bac1 cf3d f966 b03c 904d 593d
00000120: c7d3 12be 7554 ccbd d2e0 07bc 0d05 a83c
00000130: 6127 a5bd d515 e93c d9ef e4bd 2675 f4bd
00000140: 01ab 4a3c 49b2 f5bc 13f3 bdbd 7e16 d6bc
00000150: 6b88 64bd 3082 eebc df69 b03c 70e7 77bd
00000160: eae0 253d bfa4 6bbd 576b 5c3c 9445 8cbd
00000170: b1c2 49bd 91c3 6c3b bf0b 53bb 5679 00be
00000180: 2db6 49bd 7dcd 0abd e6f1 00bd 3f0d 163d
00000190: 8615 943a 45f6 e9bd 42a1 aebd 4f83 f9bd
000001a0: 8e57 6a3d 8fc7 f7bd a8d8 85bc b296 133d
000001b0: 0150 283e e271 3a3e f658 df3d 4023 a73d
000001c0: 0c77 5c3e 7be9 753d 2090 ea3d e6ac e13d
000001d0: 6e7c c03d cc9c 273e e0d3 8f3d 0bbe cbbd
000001e0: 11c1 7d3e ece8 803e 470e 153e bfbb e0bd
000001f0: d267 e63d f286 be3c 719c 73bd ce31 373c
00000200: 3c8a 47bd cd55 6a3b 348d 67bd 7a7a 38bd
00000210: ab75 753c efab eb3d 300e ae3d fe64 443c
00000220: 8224 643c 0e89 65bd ce89 6a3c ffac 213c
00000230: 554f a3bd 7806 97bc 9262 d33d 6df3 5abb
00000240: 5484 143e cac0 83bd 8be0 c53b ea34 003e
00000250: fda6 7ebc 9b28 db3d 0fd4 46bd a5c7 c83d
00000260: 1e78 7b3d cffc 843d 4752 d43d e9fd 1f3d
00000270: 6428 443d d8cc 4d3d 1423 eb3d 8597 5bbd
00000280: 8f6d 05bd 704d 953d f4d4 0b3c 2103 89bc
00000290: 08db 943c 331a 573d 73d0 d13d a640 e43d
000002a0: 3b2a 023e 96e2 92bb d31c 0bbd faa9 90bd
000002b0: d775 5a3d 4921 b93d 3b04 e5bc be78 e73d
000002c0: 8b07 db3d 33c0 103d a86d e83d a8c6 d33d
000002d0: 998c fcbc 933c 8cbd fa4a 49ba e549 3fbd
000002e0: b3d9 6dbe f764 c03b edfd 5abd dc3d d9bd
000002f0: dbbf d13c f4c1 743a 9ac7 d9bc b4bb 45bb
00000300: 7e5b 7cbe f292 21be 1dba 9fbe 0459 533e
00000310: 8e07 6fbe 0f28 68bd 33f9 e8bd ea33 c6bd
00000320: 0e47 bb3d a5c9 8b3d e139 a5bd a4a7 74bd
00000330: 2922 9c3d bcb9 8dbd 834f ff3d b07d 1c3d
00000340: 734b e83d 6d2c 4c3d 4178 ebbd 2b80 f3bd
00000350: 50cc 00be 8723 8f3d 62d8 03be 89c7 44bd
00000360: e687 00bd e92d 0f3e eca9 233d ce9a 8dbd
00000370: c859 a53d aae4 f9bc 53cd d83d 6e80 81bd
00000380: a384 65bd dd93 933d 91a0 0ebd 6325 30bd
00000390: c6aa e4bd f114 e33d 02c3 c13d b84a a13d
000003a0: 265b 743b 034a 343c f348 5cbc 8efc 6d3b
000003b0: ab94 66bd 58ae ac3d 90a2 6d3d d6ee 9bbb
000003c0: e9d1 dd3d 8593 823a 352f a0bc 8844 903d
000003d0: ce13 f73d 3579 d93d 5777 293d 1e41 c13d
000003e0: d30e d83d f9c5 813d 8996 6f3d a4b4 3c3d
000003f0: f735 14bd 0262 10bd e2ff 393d df63 523d
0.0509752 -0.09985617 -0.12828429 -0.09203336 0.050165147 0.07605745 -0.122391626 -0.06720527
-0.05151987 -0.118749365 0.10340217 0.069701895 -0.034450747 0.011403548 -0.038651794 0.07546147
0.1015032 -0.1233828 0.08562349 0.037713338 -0.05404535 0.08416324 -0.025646722 -0.004914691
0.0750694 0.033895306 0.098453194 -0.15297264 -0.16019398 -0.096365236 -0.13743874 -0.15998326
-0.13194706 -0.054614887 0.01108629 -0.047273323 -0.00046193466 0.11015796 0.16946346 0.13630112
0.07674878 0.05485394 0.09612071 -0.02405221 -0.029869512 -0.05838677 -0.03466643 -0.10715394
0.070581034 0.16551754 0.18947987 0.027161255 0.14909305 0.21522722 -0.102502145 -0.100262605
0.05504553 0.010321936 -0.009943361 0.06519147 0.069968686 -0.024841208 0.05725026 0.01845156
0.06383195 -0.004223882 0.09911312 0.09518001 -0.09497692 0.10144372 0.021533476 0.053052485
-0.14338599 -0.099770464 -0.008293347 0.02051022 -0.080641516 0.028452793 -0.1117856 -0.11936407
0.012369872 -0.02999224 -0.09274878 -0.026133772 -0.05579416 -0.029114813 0.021534858 -0.06052345
0.040497698 -0.05753016 0.013453326 -0.068492085 -0.049257938 0.003612731 -0.0032203046 -0.12546286
-0.049246002 -0.033887375 -0.031480692 0.036633726 0.0011297918 -0.11423925 -0.08526851 -0.12183248
0.057212405 -0.1209861 -0.016338661 0.036032386 0.16436769 0.18207505 0.1090564 0.0816102
0.21529788 0.060037117 0.11453271 0.11019306 0.09398733 0.16368407 0.07022834 -0.09948357
0.2478068 0.25177705 0.14556228 -0.1097331 0.11250271 0.023257706 -0.059475366 0.011181308
-0.048715815 0.0035756708 -0.056531146 -0.045038678 0.0149816675 0.11507403 0.084988 0.011986969
0.01392472 -0.05603891 0.014315082 0.009867906 -0.07974116 -0.018435702 0.10321535 -0.0033409253
0.14503604 -0.06433256 0.0060387305 0.12520185 -0.015542743 0.10701104 -0.04854208 0.09803704
0.06139385 0.06493532 0.10367256 0.039060507 0.047890082 0.050244182 0.114813 -0.053611297
-0.032575186 0.07290161 0.008534659 -0.016725125 0.018170848 0.05251522 0.10244837 0.11145143
0.12711422 -0.0044825776 -0.033963036 -0.070636705 0.053335037 0.09039552 -0.027956119 0.113023266
0.10694798 0.035339545 0.1134904 0.10340625 -0.030828761 -0.06847491 -0.0007678714 -0.04670133
-0.23227577 0.005871411 -0.05346482 -0.10607502 0.02560418 0.00093367626 -0.026584435 -0.0030171694
-0.24644276 -0.15778711 -0.3119668 0.20639426 -0.23342726 -0.056678828 -0.11375656 -0.096778706
0.09144412 0.0682557 -0.0806768 -0.059730187 0.07623703 -0.06920192 0.124663375 0.038205802
0.11342516 0.049847055 -0.11497546 -0.118896805 -0.12577939 0.06989198 -0.12875512 -0.048041854
-0.031379603 0.13982357 0.039956972 -0.06914292 0.08073765 -0.030504543 0.105860375 -0.06323324
-0.056034695 0.07205937 -0.034821097 -0.043004405 -0.11165385 0.11087979 0.09461023 0.078755796
0.0037285774 0.011003974 -0.013445127 0.0036313864 -0.056294125 0.08431691 0.05801636 -0.004758696
0.10831053 0.0009962177 -0.01955376 0.07044321 0.12064324 0.106188215 0.041373577 0.09436248
0.105497025 0.063365884 0.05849317 0.04607071 -0.036184277 -0.035249718 0.045410044 0.051364776

net.1.bias f4 [8]
00000000: 304a ab3d 5d96 603d 0fef 963c 75f5 a4bd
00000010: ad88 e53c acf2 293d 6c06 e23d 5afa aa3d
0.083637595 0.054830898 0.018424539 -0.0805463 0.028019274 0.041491196 0.11036381 0.08348532

net.2.weight f4 [16, 8, 3, 3]
00000000: 19b9 b0bd a43a 753d caf7 4bbc f1c4 623d
00000010: 3bff c13d 46fb a83d 09a4 8f3d 79c4 e53c
00000020: f5f4 09be 2452 d33d ff6f d53c 3ce6 9d3c
00000030: c3b9 e23d 6264 0b3e bb78 063d aa2c 81bc
00000040: 2c27 03be 7b00 eebd e206 c73c 6e9a 2ebd
00000050: 5776 45bb b52d 273d 4ff6 4dbe 53a5 9abd
00000060: 9c99 37bc b129 543e f448 623d 0540 e9ba
00000070: 4e58 e93d 71de c4bd 32da 65bd 8df4 09be
00000080: 02f9 edbd fc18 0bbb 77dc a1bd b9b0 db3d
00000090: d629 78bd 18ff fa3d 54d4 943d 760c fd3c
000000a0: a02a 5a3c cbac 1dbd f878 963c e4c0 1abe
000000b0: 1426 91bd a555 19bd beb4 f13d fd1b 72bd
000000c0: 82fe 09be 81ae 4f3d c994 853d 972d 543d
000000d0: 3319 503c 6bc5 88bd 09b7 5e3d d2cd 383c
000000e0: 04ea c8bc 6233 0fbe 392a 45bc 55c6 b4bd
000000f0: 6f3e 76bd 6411 723c 5559 da3d 8789 d8bd
00000100: 3129 973c a5c1 a13d 362a 8c3d fc6d 753c
00000110: daa4 9c3d 0b83 abbc 7872 7d3d 05c8 013e
00000120: 1855 d6bd f917 d73d 4761 06bd 10a4 f13c
00000130: e18d 5b3e 713c 493d 225a b2bc ffae 0b3b
00000140: e846 44be 4161 4dbb 5167 a13d fcd9 86bc
00000150: b388 a5bb 64f0 2c3e 9d30 373e 4ea7 543c
00000160: eae4 c8bc e22e 75bd ee81 603e b2c4 5b3d
00000170: d5d6 093e ddf1 afbd 7789 83be 5a03 11be
00000180: 35e7 b03e e71f 1b3e 1c9e cd3e fc33 f2bc
00000190: e882 0c3d c7ba 11bd 90d6 acbc ef35 be3b
000001a0: f73b 3d3d 445d fabc f61f 5ebc d591 88bc
000001b0: 5233 023d b955 e0bd 5317 3f3d 0a90 aebc
000001c0: 2abd 0e3e d0e8 573d 3401 b4bd 6d74 a3bc
000001d0: 26d1 18bd 0327 99be 2e63 623d 4ef0 82be
000001e0: 668c 18bd 230e 8d3e 5433 923e b46a 22be
000001f0: d624 27be 9ea0 9fbe c1f9 4d3d 78bc e8bc
00000200: 9188 97bc 907d babd f714 68bd dc7c 1fbe
00000210: df31 ab3d dcb6 20bd 9f69 413e 2a25 b33d
00000220: 518c c0bc ec23 233d 62ee af3d 5c47 35be
00000230: 16d8 45be 315d 023e d715 083e 7bba 1b3e
00000240: 50f2 723b f736 173d 1f34 873e 806a 2f3e
00000250: 4253 a2be 4f93 14bd c34c 6abe 7daf 1a3b
00000260: e716 353e b96d 203e 7e16 1d3e 14d4 6c3d
00000270: 780d 5e3e e7b3 a2be bedb 8cbc e2f5 3fbd
00000280: 8356 403d 5884 393e c33f 59be 02e0 3bbe
00000290: c68a c9be cd1a 80bd b0f0 c43e b1e3 6ebd
000002a0: a8be d5bc 19b2 b3bd aedc e1be 17f4 fbbd
000002b0: 555e 44bc 14f3 933b f32a adbd 18e3 40bc
000002c0: 5571 783d adf9 e9bc 7f67 5a3d 0b4f 813d
000002d0: ca1a 943c 284d 853e 71b4 ba3c b1d8 523e
000002e0: b875 a1be 80ea 503d 3496 d0bd 50a5 a6bd
000002f0: f7f8 1d3e a611 a63d a743 eb3d f832 14be
00000300: 6ee2 d63e a099 eebe 6da3 3fbd 1255 22be
00000310: 66e6 af3e b665 333e a6df 7cbd 6e34 b2bd
00000320: cb9c 983d 1284 e93c ee00 303e 9e66 9abd
00000330: 787c 21bd 8428 cebb f08e 243c 8e15 2cbe
00000340: 85dc b33c 7dfa 8dbd 648b fabd 2c93 963e
00000350: 06bb 78bd 627b f93d ab90 e4bd 2319 5ebd
00000360: e645 58bd bc82 a03d 964c fbbd 37f7 3a3d
00000370: 76cf 643d e01e 78bb adc1 f43d bb17 0ebc
00000380: ff00 813c 1671 a83d f332 083b 1bcc b0bd
00000390: f58e 9d3d 1900 e53d 552b 0fbe dcfd 023e
000003a0: f505 1f3d 872d 033c fb32 813d e0c8 df3c
000003b0: 3b7c b6bd 68dd cabd 9a3f bcbd 9f8c 263e
000003c0: 5ee9 14bd 69e0 913d 4d8c 05be e885 0e3d
000003d0: 0b97 eabd 9796 c4bd 74b2 2a3c 09b1 213b
000003e0: f3b9 a33d eb3b 6cbd 6f1d 86bd 60d7 99bc
000003f0: 0a7e 81bd 3531 41bd 3050 fabc fa36 09bd
-0.086290546 0.059870377 -0.012449214 0.0553636 0.094725095 0.082510516 0.07013709 0.028047787
-0.1347235 0.103184015 0.02605438 0.019274823 0.110705875 0.13612512 0.03282998 -0.015768368
-0.12807912 -0.116211854 0.024295274 -0.042627744 -0.003013035 0.040815074 -0.2011349 -0.07551064
-0.011206057 0.20719029 0.055245355 -0.0017795569 0.11393796 -0.0961274 -0.05611629 -0.13472195
-0.1161976 -0.0021224609 -0.079033785 0.107270665 -0.060586773 0.122556865 0.07267061 0.03088973
0.013315827 -0.038494866 0.01836823 -0.15112644 -0.07087341 -0.037435193 0.11802052 -0.059108723
-0.13475993 0.05070353 0.06522519 0.05180129 0.01270132 -0.066782795 0.054373775 0.01127954
-0.02452565 -0.13984445 -0.012033992 -0.08826891 -0.060118135 0.014774654 0.1066157 -0.10573106
0.018452259 0.07898263 0.068439886 0.014979836 0.076486304 -0.02093651 0.061876744 0.12673958
-0.10465449 0.10502619 -0.032807615 0.029497176 0.21440841 0.049129907 -0.021771494 0.0021314023
-0.19167674 -0.0031338485 0.07881034 -0.016461365 -0.005051696 0.16888577 0.17889638 0.012979342
-0.024523217 -0.059859164 0.21924564 0.05365438 0.13460858 -0.08591054 -0.25690815 -0.14161435
0.34551397 0.15148889 0.4015969 -0.029565804 0.03430453 -0.035578515 -0.021098405 0.005804769
0.046199765 -0.03056205 -0.013557425 -0.0166711 0.031787224 -0.1095385 0.046653103 -0.021308918
0.13939348 0.05271226 -0.08789292 -0.019952977 -0.037308834 -0.29912576 0.055270366 -0.25573963
-0.03724327 0.27549848 0.28554785 -0.15861017 -0.16322646 -0.3117723 0.050287012 -0.028410181
-0.018497737 -0.091059804 -0.05666062 -0.15574974 0.083591215 -0.03923689 0.18887947 0.08747323
-0.023504408 0.03982918 0.0859039 -0.17703003 -0.19320711 0.12730862 0.13289581 0.15207855
0.00370707 0.036917653 0.26406953 0.1713047 -0.31704146 -0.036273297 -0.22880845 0.0023603134
0.17684518 0.15666856 0.15340611 0.05781944 0.21684825 -0.3177788 -0.017194625 -0.04686535
0.046957504 0.18116891 -0.2121573 -0.18347171 -0.39363688 -0.06255112 0.3846488 -0.058322612
-0.026091889 -0.08774204 -0.44113678 -0.12302416 -0.011985381 0.004515061 -0.084554575 -0.011772893
0.060654957 -0.028561438 0.053321358 0.063139044 0.01807918 0.26035428 0.02279112 0.20590474
-0.31535125 0.051004887 -0.10184899 -0.081369996 0.15427004 0.08108835 0.11487513 -0.14472568
0.41969627 -0.46601582 -0.046786714 -0.15852764 0.34355468 0.17519268 -0.061736725 -0.087014064
0.07451781 0.028505359 0.17187855 -0.07539104 -0.039425343 -0.006291451 0.010043845 -0.16805097
0.021955738 -0.069325425 -0.12233618 0.29409158 -0.060725234 0.121817365 -0.11160406 -0.05422319
-0.052801035 0.078374356 -0.12270467 0.04564592 0.055861913 -0.00378602 0.11951003 -0.00867265
0.015747545 0.082246944 0.0020782321 -0.0863268 0.076932825 0.11181659 -0.13981374 0.12792152
0.03882404 0.00800646 0.06308552 0.027317464 -0.08910414 -0.09905511 -0.091918185 0.1626458
-0.03635537 0.07122881 -0.13041802 0.03479567 -0.114545904 -0.09599035 0.010418523 0.0024672172
0.079944514 -0.05767433 -0.06548583 -0.018779457 -0.06322868 -0.047166068 -0.030555815 -0.033499695

net.2.bias f4 [16]
00000000: a216 65bd 319c 19bc 360f 9fbd 447e 3fbd
00000010: c770 82bd 199f d83c f064 ba3d 889c b5bd
00000020: e297 af3c de58 a23c ef89 41bd a80c 0cbd
00000030: 7108 00bd d6f9 1cbd cdd2 b83c c1c0 43bd
-0.055929787 -0.009375618 -0.07766573 -0.046751276 -0.06369167 0.026443051 0.091012836 -0.088677466
0.021434728 0.019817766 -0.047250684 -0.034191757 -0.03125805 -0.0383242 0.022561455 -0.047791246

net.3.weight f4 [16, 16, 3, 3]
00000000: 7116 c83c 1e96 243d 0b7e d0bd 922f 2dbc
00000010: b444 b93b d1c1 2ebd a8de cd3d 2a4a f93c
00000020: 09cc 203e 542d e93d 0b0c ff3c a9a7 2e3d
00000030: 9638 e43d 0f4a 4bbe 3d09 aebd d7c9 d13d
00000040: e643 263e 2b1d a13e a0d3 2bbe 15d3 28be
00000050: 040b 2cbe 718e fbbc 72a3 603e c3ea 58bd
00000060: b7ac 193d 5831 c1bd babd 93be 72d4 c73b
00000070: 6aba 963c f2c3 edbd 9947 d53d d40a 21be
00000080: 4f37 5bbd 4d63 ed3d 0dc0 7a3d 5750 47bd
00000090: 757d 1e3d fc5d 923d 5023 663d 1eae 1f3d
000000a0: 0f3d c33d 19dc 303d ccdd 53bd 078c f5bc
000000b0: 1eb1 323c 2e07 d9bd 5d7b 933c 64aa 133c
000000c0: fa08 60bd cf1e db3d 1f9e 093d 6b90 a13c
000000d0: 3699 193d d919 91bd 9a47 283e e8b6 c83c
000000e0: 7eaa 833d e613 773e 4ef4 32be 5aaa e2bd
000000f0: 6d71 9c3d 834f c43c edd9 903c 6ed3 863c
00000100: 8ee4 973b 2f8c 9d3d 990a 743d a520 223e
00000110: bb9c e03d a835 253d f9e6 67bd 597d b63c
00000120: ecfb 253d c8d3 da3c 3f92 c8bd 43c6 ab3d
00000130: 87c6 33bd 05b3 9cbd 8767 213e 086a b0bd
00000140: 00a7 1dbd 2670 533d d6d4 923c a57e 683d
00000150: 1d2e c3bd 2b6c 7e3d c376 353d f757 e7bd
00000160: 0202 02bc fbed f1bc b442 4fbd 93b0 3fbd
00000170: d6c7 bdbc 8ff3 03bd 0e65 f83c 6241 943d
00000180: 80cb 97bd 5470 c03b 9a81 e3bd 23f3 763e
00000190: eced 22bc d186 fb3c b1c9 0f3e a560 a9bd
000001a0: 8011 e93b dcef 5ebd d86c cd3d f3b2 6b3d
000001b0: 3ac9 573e 3ebf 87bd 3a99 d6bd 7b3d 353e
000001c0: 2662 933d eeeb 5dbd 90a4 1ebd ed1c 85bd
000001d0: 2858 22be a38e ebba 2d46 aabc e447 48bd
000001e0: 0052 9d3d f7eb 26be 82d8 83bd f7ad 6e3d
000001f0: aafd 0a3d bc6d 3b3e e953 423d 7697 b2bc
00000200: 39a9 12be 53f8 8e3e 85b6 0a3d d947 cbbd
00000210: e24a 52bb e1b0 dc3c 1b72 08be f3af bf3d
00000220: 370f e3bc 8692 c8bd 795c 69bd 6045 02bd
00000230: 7042 e03c 5f98 c73c 122e 0a3e 1063 853d
00000240: 75df 7abd f03e 8a3d 552b a33d c644 163d
00000250: 8061 ae3c a0fc 1bbd 1222 61bc a5d3 633d
00000260: 64d6 97bd 6586 00be 6170 7c3c 9595 e8bb
00000270: 1c7a ee3d 3aea 433e 5535 e83c 87c1 91bc
00000280: aa53 943d 06bb 63bd 9a7e 163e 4c70 8a3d
00000290: 67d3 cfbb ce3e c43b f4ec 25be 1661 853d
000002a0: 189a 833c 54e5 49bd b578 4f3d a15e 813b
000002b0: 2fd6 33bd 52c4 5c3c 2b87 18bd e31b 073e
000002c0: 8ce2 9cbc 30eb c4bc 6c5f 8bbc 0a08 d6bd
000002d0: 1145 1cbd 8bd5 89bd a416 c13c 773e 603d
000002e0: 5dbc 433c 4965 a13a fb6d 3ebd 9ac0 9cbd
000002f0: f246 623b e04e 10bd 2c27 b4bd 3b6b 89bd
00000300: 36bf b3bc 39eb cabd 3a4f 9e3a 4ff4 973d
00000310: 5adf b4bc ad54 cbbc 2071 ae3d 8aa5 7bbd
00000320: 0f04 f23c 45c8 debc 5f89 773e e0ca a83c
00000330: 7998 b3bd 0448 e13c fea3 4f3b 96ce 993d
00000340: bd32 01bc 746f 4b3d a4cc 3ebc bfcd ffbd
00000350: 983f 5c3d 3330 99bd 1200 27bd 4f27 58bd
00000360: 0654 44bd a850 54bd 2567 fdbc 4243 b73d
00000370: 855f ae3d dff4 1dbd b6ab d1bc 2343 163d
00000380: 133f 82bd 4e73 fdbc c17b 613d 4200 7bbd
00000390: 97a8 a6bd 828a f6bd 7889 a93b 8a97 463d
000003a0: 036d 52bc cfd9 1d3c f257 fc3a 3c9a 60bc
000003b0: 2fd4 263d 72a8 363d 02d3 d6bd d8db 423c
000003c0: 817c d83c 5ea0 d73c 0233 f5bc 554e 973c
000003d0: 339b 963c 631f c1bd 8613 59bd b47a 213e
000003e0: 2123 cdbd d33f 2cbd 177a 19be 8647 053d
000003f0: cf5f 8c3d 037f bd3d 5706 a73c 58e4 d3bd
0.024424763 0.040182225 -0.10180291 -0.010570424 0.005653942 -0.042665306 0.10052234 0.030430872
0.15702833 0.11385599 0.031133672 0.042640362 0.111436054 -0.1985247 -0.08497856 0.10243576
0.16236839 0.31467566 -0.16779947 -0.16486771 -0.16801077 -0.03070757 0.2193735 -0.05295826
0.03751823 -0.0943324 -0.28855687 0.0060983235 0.018399436 -0.11609639 0.10414047 -0.15726787
-0.053519543 0.11591206 0.06121831 -0.048660602 0.038693864 0.07146832 0.05618602 0.03898441
0.095331304 0.04317865 -0.051725194 -0.029973997 0.010906486 -0.105970725 0.01800316 0.009012792
-0.05469606 0.10699236 0.03359806 0.019722184 0.03749963 -0.07085008 0.16433564 0.024501279
0.06429003 0.24128684 -0.17476007 -0.11067648 0.07638822 0.023963695 0.01768204 0.01645824
0.0046354 0.076927535 0.05958042 0.15832765 0.10967394 0.040334374 -0.056616757 0.022276567
0.040523455 0.026712313 -0.09793519 0.08387425 -0.043890502 -0.07651333 0.15762149 -0.08613974
-0.03848934 0.051620625 0.017923754 0.056761403 -0.0953028 0.062114876 0.044302713 -0.11296075
-0.007935049 -0.029532423 -0.050600722 -0.046799254 -0.023166578 -0.032214697 0.030321624 0.07239033
-0.074118614 0.0058727656 -0.11108704 0.24116187 -0.00994442 0.030703934 0.14041783 -0.082703866
0.007112682 -0.054427966 0.10030526 0.057543706 0.21072856 -0.066282734 -0.104784444 0.17699234
0.07196455 -0.05418008 -0.038731158 -0.06499658 -0.15853941 -0.0017971586 -0.020785416 -0.048896685
0.07681656 -0.16300951 -0.0643778 0.058271375 0.03393332 0.18303579 0.047443304 -0.021800738
-0.14322366 0.2792383 0.03386547 -0.09925813 -0.003208809 0.026939811 -0.13324778 0.093597315
-0.027717216 -0.09793572 -0.056972954 -0.031804442 0.02737543 0.024364648 0.13494137 0.06513035
-0.06124826 0.067502856 0.07967249 0.03668668 0.021286726 -0.03808272 -0.013741033 0.05562176
-0.07413939 -0.12551267 0.015407653 -0.0070979097 0.11644384 0.19132319 0.028345743 -0.017792476
0.0724252 -0.05559828 0.14696732 0.067597 -0.00634234 0.005988932 -0.16203672 0.06512658
0.016064689 -0.04929097 0.050652225 0.003948048 -0.043905433 0.013474541 -0.03723828 0.13194232
-0.019150995 -0.024037927 -0.017013274 -0.10450752 -0.038151804 -0.06730183 0.023570366 0.05474707
0.011946765 0.001231351 -0.046491604 -0.07653923 0.003452715 -0.03523147 -0.08796534 -0.06709906
-0.021941762 -0.099081464 0.0012078055 0.07419645 -0.022079159 -0.02482065 0.08517671 -0.061437167
0.02954295 -0.027195105 0.24173497 0.02060455 -0.08769316 0.02750016 0.003168344 0.07510106
-0.007885632 0.049666837 -0.01164547 -0.12490415 0.053771585 -0.074798964 -0.04077155 -0.052771863
-0.047931693 -0.051834732 -0.030932972 0.08948375 0.08514313 -0.038563605 -0.025594573 0.03668512
-0.06359687 -0.03093877 0.05504966 -0.061279543 -0.08137625 -0.12038137 0.0051738583 0.048484363
-0.012843373 0.009634449 0.0019252284 -0.013708647 0.040729698 0.044594236 -0.10489465 0.011893235
0.026426556 0.026321586 -0.029931549 0.018469969 0.018384552 -0.09429815 -0.052997135 0.15769464
-0.10016466 -0.042053055 -0.1498798 0.032538913 0.068542115 0.09252741 0.020388765 -0.103462875

net.3.bias f4 [16]
00000000: e80d 7bbc bafc 85b8 7e41 11bc d7fd 0e3d
00000010: 2f41 9cbd 9eac 3fbd d4f4 46bb 43c8 03bd
00000020: 5666 093d 24ab 6d3d f55c 78bd 7c47 d73c
00000030: 732e 8abd e10e b7bc 7dd2 1a3d d23e 03bd
-0.01532314 -6.389008e-05 -0.008865712 0.03491005 -0.0762962 -0.04679548 -0.0030358331 -0.032173406
0.03354486 0.05802454 -0.060635526 0.026279204 -0.06747141 -0.022345962 0.037798394 -0.032042332

net.4.weight f4 [32, 16, 3, 3]
00000000: afd5 47bc 9d23 ca3d 4512 9b3d e86b 3e3c
00000010: 19db 2dbe 4b3e 253e 271e 63bc 75a3 1ebc
00000020: 4b8d 07bc 26e9 67bc 915e 9cbc 0e0f 9b3c
00000030: 12e5 063d c424 423e c38d 99bc 0d70 963c
00000040: 549e 9c3c 8f2c abbd 0a74 2dbd ee1d 0d3c
00000050: f01d febc bc02 813c 626b 0a3e 70fc 4fbd
00000060: c7ba 683c 12c5 093d 63df 203d 7f62 04bd
00000070: 07b3 ba3d 9f2a 3d3d ee4a cc3d 2da3 43bc
00000080: 5ae4 493b 0b0e bcbd a51f 28be 1efb a8bd
00000090: 25dd 76bb e39a f1bc 1b3c 753d 7c44 ce3d
000000a0: 455b bbbd 1640 f4bc eae2 6abb 16fd 2dbd
000000b0: cafe 2ebd 49f6 9d3d 0532 d63c 30ec c73d
000000c0: fe89 093b c2e4 28be c48d 4d3d 9c82 81bc
000000d0: 7a9f 72bd dbfe 6c3d 39cc a73c 2dd0 cd3d
000000e0: 9e87 acbd aa92 9f3d 7499 a13d 2a86 8abd
000000f0: bee1 64bd 1370 11bc bcaf 88bb 7bdc 183c
00000100: 25dc c7bc a3fc 9cbd ac59 44bb 40fc 12bd
00000110: 0b69 2abc 0d19 f3bb 5ecb 87bd 285f 64bd
00000120: 431a a5bd 64e6 a2bc eed2 6f3d 1dbb acbd
00000130: f783 453e 8637 da3d 0909 50bc bcbf 46bd
00000140: 491a 4bbd 645f dbbc 3f69 fdbb ba33 793d
00000150: 972d 0cbe fd40 793e a6f8 6fbd 15d3 93bd
00000160: c644 3bbd 513c 54ba 1783 b3bd 3e52 203d
00000170: 03db bfbb 7e1a 78bd 7e57 08be f3c7 333d
00000180: ae55 b33d 9302 5cbc d1ac de3c 8bf6 6abd
00000190: 1727 15bd 2823 9ebd 80a7 acbd 0a48 1f3e
000001a0: 0bda 91bd 6990 8d3d 96c4 5dbd be75 b13d
000001b0: 1b45 ac3d 92af 023e 124a 24bd 4868 7f3d
000001c0: e823 05be 02c9 adba 0eef cd3d 307b 51bd
000001d0: 3d58 cdbd 59b3 09bc 9b25 b1bb dc52 463d
000001e0: 981d 853c 83c4 49be fd8d 49bd c35b 873d
000001f0: 9c23 8c3c 8050 aabd 2fa0 05bd 03b1 273d
00000200: 6c56 40bd 526a 683c ee60 743d d080 afbd
00000210: ab2b 643d fbec 473c 44a4 0a3d 7b37 b9bc
00000220: 81fd 18bd d6f8 cd3b 1b1a b93d 6316 bcbd
00000230: 7e86 c1bd 06b8 a1bb c7d9 dcbd e3ac 90bc
00000240: 7f2d 6bbd adc4 0b3d 6ae1 8d3c 7dab e63d
00000250: 40ef ba3d 6019 afbd 12f7 5dbb 3268 8e3d
00000260: 72bd 913c 5167 2fbc 95c7 26bd 7354 923d
00000270: 81b2 68bd 3a78 e0bc 6c01 8fbd 2706 0bbd
00000280: 9c23 a5bd ab18 eb3c 3b22 47bd 856b c03c
00000290: 21d1 0c3d 13cb 403d 6b08 b4bd a8bb 103d
000002a0: e090 96bc 7169 d9bc 87b9 53bd 797f 523c
000002b0: 3148 0fbe 7fb4 9b3d fc17 9abd 9d2a cbbd
000002c0: 8390 003e da62 41bc 4aed b53c b148 843c
000002d0: 62f9 5bbc 249f 5f3d 83ae 8dbc be56 6b3d
000002e0: fdcd 9b3d 682e 353d a6e9 59bd 45f6 3abd
000002f0: 2a56 52bd 6f56 6b3d 5354 51bc 6c90 97bd
00000300: 1513 b63d c7b9 ce3d 1417 2b3a 536e 00bd
00000310: 3553 053d 5852 4c3c 5da5 c2bd 725e 8cbd
00000320: 4060 a33d 4b04 433d b525 7ebd 4216 893d
00000330: 4f7e f038 c33e d33d 3ea7 8c3d c348 79bd
00000340: 8bfa 353c 3831 9e3d b3db 343d 3cd5 053e
00000350: e067 c33d 586b 633d 7609 ef3c 01f8 813d
00000360: a238 1a3d 44be 203d 0749 5e3d 743e d03d
00000370: c2e8 0abe 7e06 08bd 808a df3d bc06 04bd
00000380: 8be2 ee3c c665 673b 159e 86bd ec7b cb3c
00000390: bc47 b83d 0abb dabd 022a 4bbd 4eb4 d83d
000003a0: 24e5 f13d dd65 98bc 61eb 383d 74da 90bb
000003b0: 128e d7bd 538c 3e3d a1c7 223e b5a9 f6bd
000003c0: ad08 653d 3c5a 5b3c 50b8 9fbd e4ff 233d
000003d0: c62e 57bc 8df4 083d 9792 143d 75ba d3bd
000003e0: f7ec 373d 0c7d 74bd 7224 bfbd c477 b4bd
000003f0: 4f1c c43c 9ce0 afbd 70a9 89bd 19f2 18bb
-0.012196942 0.09870074 0.07571844 0.011622407 -0.1697811 0.16137044 -0.013862169 -0.009682526
-0.008273433 -0.014154708 -0.019088062 0.018928077 0.032933302 0.18959337 -0.018744355 0.018363977
0.019118465 -0.08358108 -0.04234699 0.008613093 -0.031020135 0.015748374 0.13517526 -0.050777853
0.014204687 0.033635207 0.03927554 -0.032320496 0.09116178 0.046183225 0.09975229 -0.01194076
0.0030806274 -0.09182366 -0.16418321 -0.08251022 -0.0037668434 -0.029492801 0.059871774 0.10071656
-0.09148268 -0.029815715 -0.0035840818 -0.04247769 -0.042723455 0.07712991 0.026146898 0.09761846
0.002098679 -0.16493514 0.050184026 -0.01580935 -0.05923412 0.057860237 0.020483123 0.10049472
-0.084243044 0.07791646 0.07890597 -0.06763871 -0.055879347 -0.008876818 -0.00417134 0.00932991
-0.024396965 -0.07665374 -0.0029960675 -0.035885096 -0.010401021 -0.007418758 -0.06630586 -0.05575481
-0.0806165 -0.01988525 0.058550768 -0.084341265 0.19288622 0.106551215 -0.012697467 -0.048522696
-0.049585614 -0.026778884 -0.0077334936 0.060840346 -0.13689266 0.24341197 -0.05858674 -0.07217995
-0.045719884 -0.0008096146 -0.08765238 0.039140932 -0.0058549657 -0.06057214 -0.13314626 0.04389186
0.087565765 -0.013428348 0.027182015 -0.057364028 -0.036414232 -0.07721549 -0.084303856 0.15554824
-0.071216665 0.0691231 -0.054142557 0.08665036 0.08411618 0.12762287 -0.0401097 0.06235531
-0.13001978 -0.0013258758 0.10055362 -0.05114287 -0.10026596 -0.008404576 -0.0054060942 0.048418865
0.016249463 -0.1970387 -0.049207676 0.06609299 0.017106824 -0.083161354 -0.032623466 0.040940296
-0.04695742 0.014185505 0.05966275 -0.08569491 0.055705708 0.012202497 0.033848062 -0.022609463
-0.037351135 0.006285767 0.09038182 -0.091839574 -0.094494805 -0.0049352674 -0.10783725 -0.017660564
-0.057416435 0.03412311 0.0173194 0.112631775 0.091276646 -0.08549762 -0.003386919 0.069534674
0.01779053 -0.010705785 -0.04071768 0.07145014 -0.05681086 -0.027401078 -0.06982693 -0.033941414
-0.080634326 0.028698286 -0.04861663 0.02348877 0.03437913 0.047068667 -0.08790668 0.035335213
-0.018379629 -0.026539536 -0.051690605 0.012847775 -0.13992383 0.07602786 -0.07524106 -0.09920237
0.12555127 -0.011803353 0.022207875 0.016147943 -0.013426157 0.054595128 -0.017295128 0.05745577
0.076076485 0.04423371 -0.05320134 -0.045645017 -0.051351704 0.057455476 -0.012776452 -0.07400593
0.08890358 0.10094028 0.0006526571 -0.031355213 0.032550056 0.012470804 -0.09504197 -0.068539515
0.079773426 0.047611516 -0.06204768 0.066936985 0.000114676186 0.10314705 0.068678364 -0.060860407
0.011107097 0.077242315 0.044154834 0.13069624 0.09541297 0.055522293 0.029179316 0.06346131
0.037651666 0.03924395 0.054268863 0.10168162 -0.13565353 -0.033209316 0.10915089 -0.032232985
0.029160758 0.0035308464 -0.065731205 0.024839364 0.08998057 -0.10680206 -0.04960061 0.105812654
0.11811283 -0.01860326 0.04514635 -0.004420573 -0.10525145 0.046520542 0.15896465 -0.12044088
0.055916477 0.013388213 -0.07798827 0.04003896 -0.01313371 0.033436347 0.03627261 -0.10338298
0.04490372 -0.059689566 -0.09333123 -0.08811906 0.02393928 -0.08587763 -0.06721771 -0.002333766

net.4.bias f4 [32]
00000000: d324 dbbc 26d5 d9bd 20be d8bd 5657 bd3d
00000010: c323 8b3d a2ac a7bd 21b8 f5bc bfec 38bc
00000020: 41f2 03bd bb13 35bc e634 963d 154b b73d
00000030: 7998 dc3d 33f0 e83c 1492 9a3b 4bdb 0cbd
00000040: 6b9a 0abd b5a1 ce3d 0f95 603d 117e 86bd
00000050: 99a8 1c3d 88de e8bd 9afa 31bc 460a 75bd
00000060: 3589 1dbd 3a3a 2bbb dd01 8bbd bc9d 103d
00000070: e635 9dbd 381e 153b 7284 88bb db35 5dbd
-0.026750958 -0.10636358 -0.105831385 0.09245174 0.067939304 -0.08187224 -0.029995026 -0.011286913
-0.032213453 -0.011052067 0.07334308 0.08949868 0.10771269 0.028434848 0.004717121 -0.03438882
-0.03383867 0.10089437 0.054829653 -0.06567014 0.038246725 -0.113705695 -0.010862971 -0.05982425
-0.03846093 -0.0026127235 -0.06787465 0.035306677 -0.07676296 0.0022753607 -0.0041661793 -0.05400644

net.5.weight f4 [16, 32, 1, 1]
00000000: 71c4 513e 888e 803d 1ecf 08be 5e90 763e
00000010: 66e4 ddbd f151 41be cf95 0dbe a7c2 33bd
00000020: a1ec 5fbe 6907 ea3d 764f 063e 97a8 193e
00000030: cbe4 3a3e 75a3 223e 3221 1bbe cef8 663e
00000040: 4d3e 09be ceb0 5a3e f372 d93c 25d3 51be
00000050: 30db ec3c 001a 4dbd 69d3 583e 5cba fcbd
00000060: 1b0d 00bd b374 eebd 540c 91bd e1dd d93d
00000070: b372 34be 6be0 15be 488b 05bd f878 0cbe
00000080: ba2e ef3b 81df 743d af44 94bd 8c1f 4bbd
00000090: 0361 ebbd 2ee8 a4bd 4953 383c 4ba2 4e3e
000000a0: a5dc 07be 43c8 903a 77ac 01bd 7bbd f23d
000000b0: 210f 583e f799 993d 4dc9 60be 861f e83d
000000c0: a7c2 2cbe 0efd 373d 637c 753e ca9c 34be
000000d0: 1cc9 13bd c84f 793d 58d5 a63c d16f 69be
000000e0: c6f9 b6bd 24f7 27be b6b9 983d dd51 fd3d
000000f0: 8023 81be d37d 75be 7acf 87be e5a0 a5bd
00000100: 975f 13bd a705 3dbc b17d 0abe e520 213e
00000110: b967 0e3d d620 163d e474 62be f736 6ebc
00000120: c244 693d 604f f7bd f899 223e 76f9 12bd
00000130: e081 ce3c c49a 033e 10ac d5bd 7a4d 3a3e
00000140: c4b0 b1bd 1c74 fdbd ac5d 5d3e 7249 e4bd
00000150: 420b 0fbd f9b1 2bbe e4ef 43bc 5455 38be
00000160: cf63 083e a32c 623d 6c30 21be 5f0d 123d
00000170: b0c1 28be e67a 6fbd 2ffa f3bd e23b ddbd
00000180: 60ba 02be b95d 433e bcab 5ebb f4d1 94bd
00000190: 9872 833d 2e82 583e fd28 173e a4e7 93bd
000001a0: 29fc 2c3e f203 1f3e 4a2d adbd a808 73be
000001b0: e01b 93bd 2b30 42be 6974 acbd 7715 353d
000001c0: 07e2 aabc e9a3 cfbc ec28 cdbd bc18 b9bc
000001d0: aa82 46be c113 3b3e 816f c53d 66fa 303e
000001e0: 5be9 88bd c63e 133d a8c3 4f3e bcc6 993d
000001f0: 3b25 6f3e e47a 353e 2bd7 ccbc 1c50 6a3e
00000200: e27a 06be be19 103e ade0 c53d 792c 20be
00000210: 9c7c 073e a7e9 733e a136 4a3e 674a d13b
00000220: f077 313e 3f48 3c3e c10b 09be d93a 77ba
00000230: 82c9 34be ee38 ea3d 0edf 793d 71a1 37be
00000240: f7ea e23c 2da0 cbba fdc9 ef3c 6c92 553d
00000250: f157 b43d 98e5 a73c a56f ecbc 0239 74bd
00000260: 0f55 3bbe 65bb b73d 7c64 ed3c 3723 413c
00000270: 516c 3f3e bf13 cabd 3c92 303a cf08 053d
00000280: 4201 0c3e cc76 36be f5f9 05be 8a43 9dbd
00000290: c06c 423e d051 d8bc a8af babd 5a79 8fbc
000002a0: 2d26 ff3d cbb6 f4bd e6bc d63c ff6d d7bc
000002b0: 037f 293d 9118 c13c 28a2 ecbd 9fef 3c3d
000002c0: 4d3c b33d 40b6 453e 7c00 233d 1f20 6e3d
000002d0: f289 823d 1347 3c3d 69fa 713e 357f bebd
000002e0: c8d3 d2bd ec59 173c 3364 29bd d66b f43d
000002f0: 105c 93bd 93d5 0ebe 8356 42be 7ad9 d4bd
00000300: 4a1c b5be 770f eb3d c445 7e3e c5b9 87be
00000310: e96b 493b 96ca b93e e708 90bd efa3 d0be
00000320: 9551 78bd 907b a6bd 5b7f 843c ba7e c4be
00000330: c676 12bd b622 04be bff2 533e 403f adbe
00000340: 30e3 e23d 45ee 493c 7b26 acbe 86af 5d3e
00000350: 8f3a 20be 183c a73d 0348 82be 71c5 ef3d
00000360: 2617 4cbe 2095 953e 3b0b 843e 1180 7cbe
00000370: 9790 833e 6199 bdbc fc60 573e f244 5bbc
00000380: a8df cfbd e1ad 663c cccf 423e d023 6cbe
00000390: e082 953d dfdd 273e ec49 9bbd d7fc a23d
000003a0: 8885 413d 3a64 f83d 5a53 9bbd c618 6cbc
000003b0: f96a 463d a5b6 56bc b4e1 b7bc 1353 46be
000003c0: 930d 873d 831f e3bd 9180 97be 89f8 133d
000003d0: af0a 94bd dac2 11bd e8f4 46be e1f7 833e
000003e0: c5e1 533d 8741 8d3e 0983 2b3e 6e0d 84be
000003f0: 6d2e 963e 03b3 623e 8ca8 823e 5c62 3a3e
0.20485093 0.06277186 -0.13360259 0.24078509 -0.10834579 -0.18878914 -0.13826679 -0.043886807
-0.2186761 0.114271946 0.1311625 0.15005718 0.1825134 0.15882666 -0.15149382 0.22555849
-0.13402672 0.21356508 0.02654407 -0.20490701 0.02891311 -0.050073624 0.21174397 -0.12340233
-0.0312625 -0.11643352 -0.070824295 0.10638023 -0.1762188 -0.1463639 -0.032603532 -0.13718021
0.0072992714 0.059783462 -0.07239663 -0.049590632 -0.11493113 -0.08052097 0.0112503255 0.20179097
-0.13267763 0.0011046011 -0.031658616 0.11852547 0.21099521 0.075000696 -0.2195179 0.113341376
-0.16871129 0.044919066 0.23973231 -0.17637935 -0.036080465 0.0608671 0.020365402 -0.22796561
-0.08934359 -0.1640287 0.074572966 0.1236913 -0.25222397 -0.2397378 -0.2652548 -0.08087329
-0.035979833 -0.011536992 -0.1352451 0.15735205 0.034766886 0.03665241 -0.22114903 -0.014539472
0.05695034 -0.120756865 0.15879047 -0.035882436 0.025208414 0.12852007 -0.10433209 0.18193617
-0.086762935 -0.12375662 0.21617764 -0.11146821 -0.034922846 -0.1676711 -0.01195905 -0.180013
0.13319324 0.05521835 -0.15741128 0.035657283 -0.16480136 -0.058466814 -0.11912953 -0.10802437
-0.12766409 0.19078721 -0.0033976873 -0.07266608 0.064183414 0.2114341 0.1476173 -0.07221916
0.16893066 0.15528849 -0.08455904 -0.23733771 -0.07183051 -0.18963687 -0.08420641 0.044209924
-0.020859731 -0.025346713 -0.10017571 -0.022594802 -0.19385782 0.18269254 0.09640408 0.1728302
-0.06685134 0.035948537 0.2028948 0.07508609 0.23354046 0.1772266 -0.025004944 0.22882122
-0.13132814 0.1407232 0.09661994 -0.15641965 0.13231128 0.238196 0.19747402 0.0063870433
0.17330909 0.18386935 -0.1338339 -0.0009431071 -0.17654994 0.1143664 0.061003737 -0.17932679
0.02769993 -0.0015535407 0.02927112 0.052141592 0.08805836 0.020495221 -0.02886183 -0.05962468
-0.18294166 0.089712895 0.028978579 0.011788181 0.18693663 -0.098670475 0.0006735658 0.032479104
0.13672355 -0.17818755 -0.13083632 -0.07678898 0.18986797 -0.026406199 -0.09115535 -0.01751392
0.12458453 -0.119489275 0.02621312 -0.026297567 0.041380893 0.023571284 -0.11554366 0.046126958
0.08751736 0.19307804 0.039795384 0.0581361 0.06373967 0.04596622 0.2363068 -0.093016066
-0.102943 0.009237748 -0.041355323 0.119346306 -0.07195294 -0.1394866 -0.18978314 -0.10393043
-0.35373145 0.11477559 0.24831301 -0.26508918 0.0030734485 0.36287373 -0.07032948 -0.4075007
-0.060624678 -0.081290364 0.01617401 -0.38377935 -0.035757802 -0.12903866 0.20698069 -0.33837318
0.11078489 0.012324874 -0.33623108 0.21648988 -0.15647338 0.08165759 -0.25445566 0.11707581
-0.19930705 0.29215336 0.25789818 -0.24658228 0.2569625 -0.023144426 0.2103309 -0.013383137
-0.10150081 0.014079542 0.1902458 -0.23060536 0.07300353 0.16393231 -0.07582459 0.079583816
0.047246486 0.12128492 -0.075842574 -0.014410203 0.04844186 -0.013105069 -0.02244649 -0.19367628
0.06594386 -0.11089995 -0.29590276 0.036125693 -0.072286 -0.035586216 -0.19429362 0.25775054
0.051728982 0.27589056 0.16749205 -0.25791496 0.29332295 0.221386 0.25519216 0.18201584

net.5.bias f4 [16]
00000000: 21a6 1fbd a473 07be 0265 0bbe 385c cbbd
00000010: 5a05 313d 6b66 14be f2ae a93d da64 073e
00000020: aaa9 80bd f614 e63d 18d5 7b3d e9d8 e53d
00000030: 4456 23bc 5b25 4f3e 89bc e0bc 99e5 15bd
-0.038976792 -0.13227707 -0.1361275 -0.09929699 0.043217994 -0.14492194 0.08285321 0.13222066
-0.06282361 0.11234467 0.06148252 0.11223013 -0.009969298 0.20229094 -0.02743365 -0.036595915

net.6.weight f4 [1, 16, 1, 1]
00000000: 25f8 2bbe 18e0 83be e787 a9be 56b6 013e
00000010: 7818 123e a91a 29be 2fe6 4a3e b769 473e
00000020: 7083 a0be 9ad5 5c3e ac35 7e3e 6198 a9be
00000030: 2f9e 96be e407 60be 8b4b 80be ce2f 21be
-0.16793878 -0.25756907 -0.33111498 0.12667212 0.14267147 -0.16514076 0.1981437 0.19473921
-0.3135028 0.21565858 0.24825162 -0.33124068 -0.2941756 -0.2187801 -0.25057635 -0.15740892
